model_final_gru.tflite (tflite, 124552 bytes, 12 tensors)

sequential/conv1d/BiasAdd/ReadVariableOp f4 [64]
0	0xbc497549	-0.012296029
1	0x3c1fbad4	0.009749133
2	0xbbfa5e1a	-0.0076406123
3	0xbe047cd2	-0.1293824
4	0xbd816d55	-0.063196816
5	0x3c9a78eb	0.018856486
6	0xbbbcffce	-0.005767799
7	0xba4c1ed8	-0.00077865785
8	0xbc59f626	-0.013303315
9	0xbd77f3a7	-0.0605351
10	0xbd7ede26	-0.062223576
11	0xbc603b10	-0.013685957
12	0xbca59a3c	-0.020215146
13	0xbdddb5f9	-0.10825724
14	0xbdd79b7c	-0.10527703
15	0x3c045d35	0.008078863
16	0xbcee215b	-0.02906864
17	0xbde633c6	-0.11240344
18	0x3b317be4	0.0027081901
19	0xbe0bb091	-0.13641573
20	0xbc912103	-0.017715937
21	0x3b851922	0.004061834
22	0xbdc104a5	-0.09424714
23	0xbdb882d1	-0.09009326
24	0xbd83486f	-0.064103
25	0xbda65ba8	-0.08122951
26	0xbd1ad5eb	-0.037801664
27	0xbd6999d2	-0.05703146
28	0x3cb09963	0.021557515
29	0xbdefbf38	-0.11706394
30	0x3cb31545	0.021860728
31	0x3c8b8abf	0.017033933
32	0x3ceda10f	0.029007463
33	0xbd6f8d18	-0.058484167
34	0xbd948074	-0.07251063
35	0xbd897a70	-0.06712806
36	0x3b01a0ac	0.0019779606
37	0xbd84f45d	-0.06491921
38	0xbc80a2de	-0.015702661
39	0xba2a8f89	-0.0006506374
40	0x3aebcd0c	0.0017990186
41	0x3ca37526	0.019953322
42	0x3b0352d7	0.002003839
43	0xbd12c38d	-0.035831023
44	0x3bcb0aec	0.0061963703
45	0xbd02d5bd	-0.031942118
46	0x3aef78fe	0.0018270311
47	0xbd82e6fc	-0.06391713
48	0xbd9597dd	-0.07304356
49	0xbdceacbb	-0.100915395
50	0xbbf726b4	-0.0075424556
51	0xbdd706cf	-0.104993455
52	0xbd207c1c	-0.03918086
53	0x3d08cd75	0.033399064
54	0xbe011615	-0.1260608
55	0x384b7748	4.851006e-05
56	0xbb229b1f	-0.0024811698
57	0x3cbb14fd	0.022837156
58	0xbca3705d	-0.01995104
59	0x3ca8025e	0.020508941
60	0xbd75f74e	-0.0600503
61	0xbdda8588	-0.1067
62	0x3b673b2a	0.0035283067
63	0xbd7d0228	-0.061769634

sequential/conv1d/Conv1D f4 [64, 1, 2, 1]
0	0xc067c297	-3.6212518
1	0xbfba8f31	-1.4574949
2	0x3cd130b9	0.025535928
3	0x407184d6	3.7737327
4	0xc0172a84	-2.36197
5	0xbf689b66	-0.9086212
6	0x3fa05650	1.252634
7	0xc00a4a7e	-2.1607966
8	0x3f845c82	1.0340731
9	0x40361892	2.8452497
10	0xbf4b7c77	-0.79486793
11	0xc00db0da	-2.2139192
12	0xbfeff114	-1.8745446
13	0x4014d458	2.3254604
14	0xc02628b6	-2.5962348
15	0xbf4983de	-0.7871684
16	0xc02315ce	-2.5482059
17	0x3fc2137c	1.5162196
18	0xbf3c8e5e	-0.73654735
19	0xc001c640	-2.0277252
20	0xbf3d1ad8	-0.73869085
21	0xc0029703	-2.040467
22	0xbf9aaeff	-1.2084655
23	0x404a7e94	3.1639757
24	0xc0694cf4	-3.6453218
25	0x3f3e6a7e	0.74381244
26	0x4011bd83	2.2771919
27	0x3f965c66	1.1746948
28	0x3fec3a62	1.8455317
29	0xc0051c98	-2.0798702
30	0xbe086d91	-0.13323046
31	0x40569bec	3.3532667
32	0x3eaa0e55	0.3321406
33	0xbfe4d9c9	-1.7878963
34	0x3fdf72dc	1.7456927
35	0xbfe6cd79	-1.8031455
36	0xbf0fb5f4	-0.56137013
37	0xbfc820f3	-1.5635055
38	0xbf46f53a	-0.77717936
39	0xc00a6d89	-2.1629355
40	0x3feb188c	1.8366866
41	0x3ffe95bd	1.9889446
42	0x3f1476a6	0.57993543
43	0x3fc84257	1.5645245
44	0x3fd5d3c5	1.6705252
45	0xbfeea24e	-1.8643281
46	0xbf864562	-1.0489924
47	0xc03adfa2	-2.9198995
48	0x3f854e09	1.041444
49	0x4038d764	2.8881464
50	0x3fe269c6	1.768853
51	0xbff244f3	-1.8927292
52	0xc05d61a7	-3.4590852
53	0x3fc0a662	1.5050776
54	0x401cfd1c	2.4529486
55	0x3f7b8d02	0.98262036
56	0xbf51a678	-0.81894636
57	0xc011c3be	-2.2775722
58	0x401d3fc1	2.4570162
59	0x3fad6b49	1.3548366
60	0xbf5749f7	-0.84097236
61	0xc0152f0b	-2.3309963
62	0xbf40fc99	-0.75385433
63	0xc005e707	-2.0922258
64	0x3f9e7d5c	1.2382007
65	0x4056e102	3.3574834
66	0x3f9a6990	1.2063465
67	0xc0048594	-2.070653
68	0x3f964edd	1.1742817
69	0x404e5585	3.2239697
70	0x3f8aff96	1.0859249
71	0x403f503b	2.9892719
72	0xc033d9dc	-2.810172
73	0x400c8ed5	2.1962178
74	0x3f869f74	1.0517411
75	0x403957c8	2.8959827
76	0xc00569e2	-2.0845876
77	0x4010c82b	2.2622173
78	0x3f83b0c2	1.0288317
79	0x4036cdc6	2.8563094
80	0x3f0144df	0.50495714
81	0x3faed9df	1.3660239
82	0xbf3f842a	-0.7481104
83	0xc0051a16	-2.0797172
84	0x3eabd1ee	0.335586
85	0x3f5c5945	0.86073714
86	0xc04dfb8f	-3.218479
87	0x3fb21efd	1.3915707
88	0xc0219f88	-2.525362
89	0x40011bb4	2.0173159
90	0xc04987c1	-3.1489108
91	0x3fb25065	1.3930784
92	0x3f484d73	0.7824318
93	0x400b2a18	2.1744442
94	0xbf5f3e6b	-0.8720462
95	0x4077d448	3.8723316
96	0x3f95a167	1.1689881
97	0x404d7e66	3.2108397
98	0x3fe6a428	1.8018847
99	0xbffa2bfb	-1.9544672
100	0xc024137b	-2.563689
101	0xbf45bbca	-0.7723967
102	0x40028331	2.0392573
103	0xc005cd6e	-2.0906634
104	0x3eec962f	0.4620833
105	0xc0098663	-2.1488273
106	0x3f84589c	1.0339541
107	0x4033143e	2.7981105
108	0x402a3b22	2.6598592
109	0xbfb47cda	-1.4100602
110	0x3f6e8809	0.93176323
111	0x4025ab12	2.5885663
112	0xc03a8ae3	-2.914727
113	0xbf20dc0f	-0.6283578
114	0xbf5e31d1	-0.86794764
115	0xc01a7f4a	-2.414019
116	0xbff8fe6d	-1.9452645
117	0xbffdddbd	-1.9833294
118	0xbf623afc	-0.88371253
119	0xc01d252f	-2.4553945
120	0xbfaf00f7	-1.367217
121	0x40643d6d	3.5662491
122	0x3ffe51e0	1.9868736
123	0xc004ad8e	-2.073093
124	0xbf697e01	-0.9120789
125	0xbfdfffb4	-1.7499909
126	0xbf3b43c8	-0.731503
127	0xc000e1e5	-2.0137875

sequential/dense/BiasAdd/ReadVariableOp f4 [32]
0	0xbdfe102b	-0.124054275
1	0x3e850cbd	0.2598628
2	0xbf66d458	-0.9016776
3	0xbe529ee2	-0.20568421
4	0x3f126443	0.5718424
5	0xbf48acf4	-0.78388906
6	0xbd3eb261	-0.046556834
7	0xbe320f6a	-0.17388692
8	0xbf7573e2	-0.9587995
9	0xbeb3c145	-0.3510839
10	0xbeb8fc23	-0.36129865
11	0xbedca60d	-0.43095437
12	0xbf18e50b	-0.5972449
13	0xbeeb4171	-0.45948365
14	0xbf42ba1a	-0.7606522
15	0x3dfafc22	0.12255122
16	0xbcab4bf9	-0.02091025
17	0x3e02c805	0.12771614
18	0x3c04c82b	0.008104364
19	0xbea7199c	-0.32636726
20	0x3dac42b9	0.08411164
21	0x3dda8e9d	0.106717326
22	0xbddb3c94	-0.10704914
23	0xbd9b4c42	-0.075829044
24	0xbe225df1	-0.15856148
25	0xbed0e323	-0.40798292
26	0x3cb9e7c8	0.02269353
27	0xbea28e2b	-0.3174909
28	0xbeda28f7	-0.4260938
29	0x3d70de0e	0.058805518
30	0xbe9d1914	-0.30683196
31	0x3df0343d	0.11728714

sequential/dense_1/BiasAdd/ReadVariableOp f4 [7]
0	0xbdc592a4	-0.0964711
1	0x3e6f1867	0.23349153
2	0xbf5dfa51	-0.8671008
3	0x3e5bc93b	0.21463482
4	0xbe2a4583	-0.16628079
5	0xbed02740	-0.40654945
6	0x3eb967fc	0.36212146

unstack f4 [192]
0	0x3f1364bc	0.57575583
1	0xbd70f6dd	-0.058829177
2	0x3d9f3130	0.07773054
3	0xbe2194ff	-0.15779494
4	0xbd0a190d	-0.033715297
5	0x3e5d3064	0.21600491
6	0x3f5e0218	0.86721945
7	0xbe218099	-0.15771712
8	0x3e9300b1	0.28711465
9	0x3d9e7cf0	0.07738674
10	0x3f896d3c	1.0736461
11	0x3f208e0f	0.62716764
12	0xbe8715e3	-0.26383886
13	0x3f48e1dd	0.7846964
14	0xbd21fd1e	-0.039548032
15	0x3e3f50fb	0.18683235
16	0x3ead4fa0	0.33849812
17	0xbf422141	-0.7583199
18	0x3dd2bee3	0.10290315
19	0xbe21d5dc	-0.15804237
20	0x3f4e6370	0.8062048
21	0xbe06fdc2	-0.13182738
22	0x3ed96c44	0.42465413
23	0x3eca4d7d	0.39512244
24	0xbc987eec	-0.018615209
25	0x3ea60e1f	0.3243265
26	0xbe87a31d	-0.26491633
27	0x3eb9c6fa	0.3628462
28	0x3eb7dddb	0.3591145
29	0x3f3c2ae8	0.7350297
30	0xbf03601b	-0.5131852
31	0xbe3a00c4	-0.18164355
32	0xbe63afbe	-0.22235009
33	0x3e972718	0.29522014
34	0x3ec49156	0.38392133
35	0xbed8bcbc	-0.42331493
36	0x3e9e36eb	0.30901274
37	0x3f621594	0.88314176
38	0x3e86e936	0.263498
39	0x3ede4e39	0.43419054
40	0xbecaaf30	-0.39586782
41	0x3ea0ffc3	0.3144513
42	0xbe300d98	-0.17192686
43	0x3e1b21e0	0.15149641
44	0xbce74310	-0.02823022
45	0xbccc481d	-0.02493673
46	0x3d60a554	0.05484517
47	0x3e90d4e1	0.28287414
48	0x3f789efd	0.97117597
49	0x3ee2b20c	0.44276464
50	0xb9bc6bac	-0.00035938376
51	0xbf78cbca	-0.9718596
52	0x3d7fcc2e	0.06245058
53	0xbf65080f	-0.8946542
54	0x3d58294b	0.052773755
55	0x3e79b2d5	0.24384625
56	0x3e83930a	0.2569812
57	0x3ec3b68b	0.38225207
58	0xbfaabc56	-1.3338726
59	0x3da08c36	0.07839243
60	0xbfa774ba	-1.3082497
61	0xbf269f8c	-0.650872
62	0x3f04d10f	0.518815
63	0x3f0ae42b	0.54254407
64	0x3f0dc728	0.55382013
65	0xbeae2390	-0.34011507
66	0x3ea1890b	0.31549868
67	0x3e1759b5	0.14780314
68	0xbe9b4dab	-0.30332693
69	0xbe0201c2	-0.12695983
70	0x3ddda1bf	0.10821866
71	0xbef888d8	-0.48541903
72	0x3edeaf12	0.43492943
73	0xbe9c086e	-0.3047518
74	0xbe4618da	-0.19345418
75	0xbe5c1620	-0.21492815
76	0x3fa6072a	1.2970936
77	0x3f5d175e	0.8636378
78	0x3dd815b7	0.10551017
79	0xbd9f4401	-0.077766426
80	0x3e5ae772	0.21377352
81	0x3e7aa017	0.24475132
82	0x3d64dba1	0.055873517
83	0x3e81219a	0.25220948
84	0xbf1028f0	-0.56312466
85	0x3e0f9ae1	0.14023925
86	0xbe903e99	-0.28172758
87	0xbd419976	-0.047265492
88	0xbefccec8	-0.49376512
89	0xbf3d9d97	-0.7406859
90	0xbd776a60	-0.06040418
91	0x3ecde9b9	0.4021738
92	0xbe43c5a6	-0.19118366
93	0x3ebeccde	0.37265676
94	0xbebcaf1d	-0.3685235
95	0x3ed1c1c9	0.4096816
96	0xbf2a92fe	-0.6663054
97	0x3e5eb09f	0.21747063
98	0xbf0e34ea	-0.5554949
99	0xbf514163	-0.817404
100	0xbe839aea	-0.25704128
101	0x3dcb10a3	0.099152826
102	0xbfb35fce	-1.4013612
103	0xbf0ef0c0	-0.55836105
104	0xbea3a781	-0.31963733
105	0xbe7a9863	-0.24472193
106	0x3ee4824e	0.44630665
107	0xbea18770	-0.31548643
108	0xbdbca108	-0.09210402
109	0xbf29602b	-0.66162366
110	0x3e6d862b	0.23195712
111	0x3e8d1119	0.27552107
112	0x3e09dff5	0.13464339
113	0x3de57624	0.11204174
114	0x3eb98f35	0.3624207
115	0x3e20d113	0.15704755
116	0x3f820225	1.0156904
117	0x3ed52dfa	0.4163664
118	0x3e917aec	0.28414094
119	0x3e98a45f	0.29812905
120	0x3e6f2a8b	0.23356073
121	0x3dc2f38b	0.095191084
122	0x3d1dfb15	0.03856953
123	0x3cc82f4b	0.024436614
124	0xbcbd9610	-0.023142844
125	0x3e8962f0	0.26833296
126	0xbdd6ffc7	-0.104980044
127	0xbee115fe	-0.4396209
128	0xbf04ca33	-0.5187103
129	0xbdd3dde9	-0.103450604
130	0x3d300c59	0.042980526
131	0xbf0b50b0	-0.54419994
132	0xbd84fb03	-0.06493189
133	0x3e823e39	0.25438097
134	0xbd00f04c	-0.031479165
135	0xbf09a3e9	-0.5376573
136	0xbe1371f0	-0.14398932
137	0xbda40011	-0.08007825
138	0xbe63cdde	-0.22246501
139	0x3e94ea32	0.29084927
140	0x3ef79863	0.4835845
141	0x3e90f1d0	0.28309488
142	0xbe9c6ea1	-0.30553153
143	0xbe1ea5cc	-0.15492934
144	0x3d36242a	0.044468082
145	0x3e718577	0.23586069
146	0x3e79ed2a	0.24406877
147	0x3da7b65a	0.08189078
148	0xbe26d462	-0.16291955
149	0xbf1f1085	-0.6213458
150	0xbe4e1053	-0.20123415
151	0x3e9dec0c	0.30844152
152	0x3e2efe58	0.17089212
153	0x3cdf76d8	0.027278349
154	0xbdd2d4e7	-0.10294514
155	0xbe0dfd20	-0.13866091
156	0x3f104d90	0.5636835
157	0xbee2aa4b	-0.44270548
158	0xbd440160	-0.047852874
159	0x3f0a378b	0.53991
160	0x3d98169e	0.07426189
161	0xbe2baa60	-0.16764212
162	0x3d3c9c85	0.046047706
163	0x3df14162	0.11780049
164	0xbe269468	-0.1626755
165	0x3d2afc03	0.041744243
166	0xbe8ab408	-0.27090478
167	0xbd995500	-0.074869156
168	0x3e32f9b8	0.17478073
169	0xbe995144	-0.29944813
170	0xbf3f3ad7	-0.7469916
171	0xbe671536	-0.22566685
172	0x3c4e21d2	0.012581306
173	0x3c935a1d	0.017987305
174	0xbee5fc98	-0.44919276
175	0xbd7ed716	-0.06221684
176	0xbe9f7590	-0.3114438
177	0x3e6c2191	0.2305968
178	0xbe5a5243	-0.21320443
179	0x3e092c33	0.13395767
180	0xbe713229	-0.23554291
181	0xbe71013a	-0.23535624
182	0xbec6b18c	-0.38807333
183	0xbdce1259	-0.10062093
184	0xbe3edd25	-0.18639047
185	0xbdf6b679	-0.12046523
186	0xbe50447c	-0.20338625
187	0x3e94461b	0.28959736
188	0x3e98260f	0.29716536
189	0x3d4c71d8	0.049913257
190	0xba9a857f	-0.0011789053
191	0x3dcfb8e6	0.101426885

unstack1 f4 [192]
0	0x3f1364bc	0.57575583
1	0xbd70f6dd	-0.058829177
2	0x3d9f3130	0.07773054
3	0xbe2194ff	-0.15779494
4	0xbd0a190d	-0.033715297
5	0x3e5d3064	0.21600491
6	0x3f5e0218	0.86721945
7	0xbe218099	-0.15771712
8	0x3e9300b1	0.28711465
9	0x3d9e7cf0	0.07738674
10	0x3f896d3c	1.0736461
11	0x3f208e0f	0.62716764
12	0xbe8715e3	-0.26383886
13	0x3f48e1dd	0.7846964
14	0xbd21fd1e	-0.039548032
15	0x3e3f50fb	0.18683235
16	0x3ead4fa0	0.33849812
17	0xbf422141	-0.7583199
18	0x3dd2bee3	0.10290315
19	0xbe21d5dc	-0.15804237
20	0x3f4e6370	0.8062048
21	0xbe06fdc2	-0.13182738
22	0x3ed96c44	0.42465413
23	0x3eca4d7d	0.39512244
24	0xbc987eec	-0.018615209
25	0x3ea60e1f	0.3243265
26	0xbe87a31d	-0.26491633
27	0x3eb9c6fa	0.3628462
28	0x3eb7dddb	0.3591145
29	0x3f3c2ae8	0.7350297
30	0xbf03601b	-0.5131852
31	0xbe3a00c4	-0.18164355
32	0xbe63afbe	-0.22235009
33	0x3e972718	0.29522014
34	0x3ec49156	0.38392133
35	0xbed8bcbc	-0.42331493
36	0x3e9e36eb	0.30901274
37	0x3f621594	0.88314176
38	0x3e86e936	0.263498
39	0x3ede4e39	0.43419054
40	0xbecaaf30	-0.39586782
41	0x3ea0ffc3	0.3144513
42	0xbe300d98	-0.17192686
43	0x3e1b21e0	0.15149641
44	0xbce74310	-0.02823022
45	0xbccc481d	-0.02493673
46	0x3d60a554	0.05484517
47	0x3e90d4e1	0.28287414
48	0x3f789efd	0.97117597
49	0x3ee2b20c	0.44276464
50	0xb9bc6bac	-0.00035938376
51	0xbf78cbca	-0.9718596
52	0x3d7fcc2e	0.06245058
53	0xbf65080f	-0.8946542
54	0x3d58294b	0.052773755
55	0x3e79b2d5	0.24384625
56	0x3e83930a	0.2569812
57	0x3ec3b68b	0.38225207
58	0xbfaabc56	-1.3338726
59	0x3da08c36	0.07839243
60	0xbfa774ba	-1.3082497
61	0xbf269f8c	-0.650872
62	0x3f04d10f	0.518815
63	0x3f0ae42b	0.54254407
64	0x3f0dc728	0.55382013
65	0xbeae2390	-0.34011507
66	0x3ea1890b	0.31549868
67	0x3e1759b5	0.14780314
68	0xbe9b4dab	-0.30332693
69	0xbe0201c2	-0.12695983
70	0x3ddda1bf	0.10821866
71	0xbef888d8	-0.48541903
72	0x3edeaf12	0.43492943
73	0xbe9c086e	-0.3047518
74	0xbe4618da	-0.19345418
75	0xbe5c1620	-0.21492815
76	0x3fa6072a	1.2970936
77	0x3f5d175e	0.8636378
78	0x3dd815b7	0.10551017
79	0xbd9f4401	-0.077766426
80	0x3e5ae772	0.21377352
81	0x3e7aa017	0.24475132
82	0x3d64dba1	0.055873517
83	0x3e81219a	0.25220948
84	0xbf1028f0	-0.56312466
85	0x3e0f9ae1	0.14023925
86	0xbe903e99	-0.28172758
87	0xbd419976	-0.047265492
88	0xbefccec8	-0.49376512
89	0xbf3d9d97	-0.7406859
90	0xbd776a60	-0.06040418
91	0x3ecde9b9	0.4021738
92	0xbe43c5a6	-0.19118366
93	0x3ebeccde	0.37265676
94	0xbebcaf1d	-0.3685235
95	0x3ed1c1c9	0.4096816
96	0xbf2a92fe	-0.6663054
97	0x3e5eb09f	0.21747063
98	0xbf0e34ea	-0.5554949
99	0xbf514163	-0.817404
100	0xbe839aea	-0.25704128
101	0x3dcb10a3	0.099152826
102	0xbfb35fce	-1.4013612
103	0xbf0ef0c0	-0.55836105
104	0xbea3a781	-0.31963733
105	0xbe7a9863	-0.24472193
106	0x3ee4824e	0.44630665
107	0xbea18770	-0.31548643
108	0xbdbca108	-0.09210402
109	0xbf29602b	-0.66162366
110	0x3e6d862b	0.23195712
111	0x3e8d1119	0.27552107
112	0x3e09dff5	0.13464339
113	0x3de57624	0.11204174
114	0x3eb98f35	0.3624207
115	0x3e20d113	0.15704755
116	0x3f820225	1.0156904
117	0x3ed52dfa	0.4163664
118	0x3e917aec	0.28414094
119	0x3e98a45f	0.29812905
120	0x3e6f2a8b	0.23356073
121	0x3dc2f38b	0.095191084
122	0x3d1dfb15	0.03856953
123	0x3cc82f4b	0.024436614
124	0xbcbd9610	-0.023142844
125	0x3e8962f0	0.26833296
126	0xbdd6ffc7	-0.104980044
127	0xbee115fe	-0.4396209
128	0xbeae30d6	-0.34021634
129	0x3edd550f	0.43228957
130	0x3ddaee41	0.106899746
131	0x3d6a7bc5	0.057246942
132	0xbe47b3d0	-0.19502187
133	0x3d82ba93	0.063832425
134	0x3e0f8c2d	0.14018317
135	0xbebb5c23	-0.36593732
136	0xbd8fdf2f	-0.07024991
137	0xbe30607b	-0.17224304
138	0xbe77ef23	-0.24212317
139	0xbc273fc2	-0.010208072
140	0x3ee91060	0.45520306
141	0x3e4c09b7	0.19925581
142	0x3f0413a4	0.5159247
143	0xbe4bacbd	-0.19890113
144	0x3f1f4714	0.6221783
145	0x3e167e85	0.14696701
146	0x3e580f62	0.21099618
147	0xbc9d1fed	-0.019180262
148	0xbdfff4e7	-0.12497883
149	0xbde7db16	-0.11321084
150	0xbe55e3c5	-0.20887668
151	0x3ef9e9b6	0.4881112
152	0x3d8b7985	0.068102874
153	0x3dbec6c5	0.09315256
154	0xbf670e2f	-0.9025602
155	0x3e09a37e	0.13441274
156	0x3eef69d0	0.46760416
157	0xbebf1fae	-0.37328857
158	0xbc47dac1	-0.012198151
159	0x3f16176a	0.5862948
160	0xbea7712a	-0.32703525
161	0xbe6e30d7	-0.23260818
162	0xbe48e0f9	-0.1961707
163	0x3d49851a	0.0491992
164	0xbf116386	-0.56792486
165	0xbd53f501	-0.051747326
166	0xbf843e1e	-1.0331457
167	0xbee0834d	-0.43850175
168	0x3e1b87c9	0.15188517
169	0xbef82f89	-0.48473766
170	0xbf2bca03	-0.6710512
171	0xbc956340	-0.018235803
172	0xbd20a941	-0.039223913
173	0x3ca30ed3	0.01990453
174	0xbef800df	-0.48438165
175	0x3eac749d	0.3368272
176	0xbed66e98	-0.4188125
177	0xbdf29b28	-0.11846
178	0xbeca4852	-0.395083
179	0x3f9742af	1.1817225
180	0xbe5dcd96	-0.21660456
181	0xbe272596	-0.16322932
182	0x3b829922	0.00398554
183	0xbdd8dfa3	-0.1058953
184	0xbe7d29f9	-0.24723043
185	0xbed30c65	-0.41220394
186	0xbe89a1b4	-0.26881182
187	0x3e4b708b	0.1986715
188	0x3ef6f61e	0.48234648
189	0x3e43d80a	0.19125381
190	0xbdfd9a14	-0.12382904
191	0x3e64a59c	0.223288

sequential/dense/MatMul f4 [32, 64]
0	0xbed55c6d	-0.41672078
1	0x3ddf95e3	0.109172605
2	0x3dcabdc9	0.0989948
3	0xbe6f183f	-0.23349093
4	0xbdc37e04	-0.0954552
5	0xbe60363e	-0.21895692
6	0xbe0f9dd6	-0.14025053
7	0xbde58e1c	-0.11208746
8	0x3f000aa7	0.50016254
9	0xbe04f3f5	-0.12983687
10	0xbebb239d	-0.36550608
11	0xbf1fdd83	-0.62447375
12	0xbe56bb9d	-0.20970006
13	0xbe90c3fd	-0.28274527
14	0xbee0416b	-0.4379991
15	0x3d83271a	0.064039424
16	0xbe534cb9	-0.20634736
17	0xbdd44e23	-0.10366466
18	0xbf691c72	-0.9105903
19	0x3e979b4c	0.2961067
20	0xbd2cf9c9	-0.0422304
21	0x3ef4d456	0.4781825
22	0x3dd7169f	0.105023615
23	0xbea8f0ac	-0.32996118
24	0xbf05a318	-0.52201986
25	0x3f1af2b1	0.6052657
26	0x3e456a16	0.1927875
27	0xbf168d20	-0.5880909
28	0x3c414fc2	0.011798801
29	0x3f3294f9	0.69758564
30	0xbe3cb15a	-0.18427029
31	0x3cf644b9	0.030062066
32	0xbd8239a4	-0.0635865
33	0x3d5c3405	0.053760547
34	0xbeded2a7	-0.4352009
35	0xbd98bb33	-0.074575804
36	0xbe9f4387	-0.31106207
37	0x3f64890e	0.8927163
38	0x3ea972ac	0.330953
39	0x3e92d816	0.28680485
40	0x3e661e97	0.22472607
41	0x3e2d32f8	0.16913974
42	0x3dc41361	0.09574009
43	0xbe114206	-0.14185342
44	0xbe0577e7	-0.1303402
45	0x3f1effb4	0.6210892
46	0x3ec48c20	0.38388157
47	0x3dfc49c1	0.12318755
48	0xbd7e60b8	-0.062103957
49	0x3e8c1425	0.2735912
50	0x3c84c1c6	0.01620568
51	0x3e66fda7	0.22557698
52	0x3f23c77c	0.63976264
53	0x3d13881c	0.036018476
54	0xbea2e00b	-0.31811556
55	0x3df90ac3	0.12160256
56	0xbe0714ff	-0.13191603
57	0xbe580d36	-0.2109879
58	0x3d5e856d	0.054326463
59	0xbe8e96f0	-0.2784953
60	0xbec1e66c	-0.3787111
61	0xbf38d027	-0.72192615
62	0x3edacfe0	0.4273672
63	0x3e9d386f	0.30707118
64	0x3dde8f80	0.10867214
65	0xbe944ecf	-0.28966376
66	0xbf181cfe	-0.5941924
67	0xbf895f0c	-1.0732131
68	0x3ded0646	0.11573462
69	0x3e7272a8	0.2367655
70	0xbec76982	-0.38947684
71	0xbe80e48c	-0.25174367
72	0x3da80830	0.08204687
73	0xbea9901d	-0.33117762
74	0x3d37354f	0.044728573
75	0xbe8bdb0f	-0.27315566
76	0x3d926011	0.071472295
77	0x3eb2a7e3	0.34893712
78	0xbed5f6f7	-0.41789982
79	0xbec21e55	-0.37913767
80	0x3df71d3c	0.12066123
81	0x3dcefbde	0.101066336
82	0x3da23ef5	0.07922164
83	0xbd7e8639	-0.062139723
84	0xbf2bff0d	-0.6718605
85	0xbf930059	-1.1484481
86	0xbe589baa	-0.21153131
87	0x3e91aea8	0.28453565
88	0x3ea69d1c	0.3254174
89	0x3ebc884b	0.36822733
90	0xbe188b5e	-0.14896914
91	0x3a955c24	0.0011395258
92	0x3c90540b	0.0176182
93	0xbebd137b	-0.36928925
94	0x3e153557	0.14571129
95	0x3dcb82da	0.09937067
96	0x3e9000f0	0.28125715
97	0x3c59653e	0.013268767
98	0xbed644bf	-0.41849324
99	0x3e471e8f	0.19445251
100	0xbeb569bb	-0.35432228
101	0x3e0d684e	0.1380932
102	0x3ee87601	0.4540253
103	0x3e3177e8	0.17330897
104	0x3ed6a46c	0.4192232
105	0xbeb94d7d	-0.3619193
106	0xbd3208f0	-0.043465555
107	0xbf00f33a	-0.50371134
108	0x3e50e75c	0.20400757
109	0x3e5cb0b0	0.21551776
110	0xbd5c6e98	-0.053816408
111	0xbee68233	-0.4502121
112	0x3e144f7e	0.14483449
113	0x3ebafb29	0.36519745
114	0xbd997054	-0.07492128
115	0x3de17bc4	0.110099345
116	0x3e2c9622	0.16854146
117	0x3eaf86dd	0.3428258
118	0xbfbc9d9b	-1.4735597
119	0xbec70587	-0.38871405
120	0xbe114dd6	-0.14189848
121	0x3d82384a	0.063583925
122	0x3ecaf938	0.39643264
123	0xbec1cdd5	-0.3785235
124	0x3f21a5ed	0.6314381
125	0xbcf7b447	-0.03023733
126	0x3e3d9b23	0.18516211
127	0xbefba393	-0.49148235
128	0xbb94b17e	-0.0045377603
129	0x3f7f8776	0.9981607
130	0xbe9b5cbf	-0.30344197
131	0x3f0aa9e3	0.54165477
132	0x3e869b41	0.26290324
133	0xbe042779	-0.12905683
134	0x3cb0911a	0.021553565
135	0x3ed9b231	0.42518762
136	0x3ea2bf53	0.31786594
137	0xbeba085a	-0.36334497
138	0x3f754110	0.958024
139	0x3f87163e	1.0553663
140	0x3e835e6c	0.25657976
141	0xbe0671d2	-0.13129357
142	0x3f4b9acd	0.7953308
143	0x3e7d9dd2	0.24767235
144	0xbe83b3d6	-0.2572314
145	0xbd4b9cb3	-0.049709987
146	0x3f032e2e	0.5124234
147	0x3ec056af	0.37566134
148	0x3eb82bc8	0.35970902
149	0x3e572429	0.21009888
150	0x3e1715f5	0.1475447
151	0x3f323785	0.69615966
152	0xbddac42a	-0.106819466
153	0x3de02309	0.109441824
154	0x3e918ccc	0.28427732
155	0x3e996f67	0.29967806
156	0x3c2994d2	0.010350423
157	0x3c99433d	0.01870882
158	0xbcd36ab7	-0.025807722
159	0xbf252059	-0.64502484
160	0xbea8bf8a	-0.32958633
161	0xbf135667	-0.57553715
162	0x3f87e803	1.0617679
163	0x3db87efd	0.09008596
164	0x3efbd3c9	0.49185017
165	0x3f2c04ff	0.67195123
166	0xbd37abaa	-0.044841446
167	0xbe87e7d9	-0.26544073
168	0x3e197a8c	0.14988154
169	0xbf1bd3c6	-0.60870016
170	0x3f7ad3c0	0.97979355
171	0x3f25ace9	0.64716965
172	0x3de9e8d6	0.11421363
173	0xbd82dc5d	-0.06389687
174	0xbe673662	-0.22579339
175	0xbc9fff62	-0.019530956
176	0xbf540ea6	-0.8283485
177	0xbe5b4173	-0.21411686
178	0x3d859a8a	0.065236166
179	0x3f07e292	0.53080094
180	0x3e5bd3be	0.21467492
181	0x3e9fe51d	0.31229487
182	0x3e9652fa	0.2936018
183	0x3e6bb54f	0.23018382
184	0xbf07df12	-0.53074753
185	0x3ebc7d8e	0.3681454
186	0xbb3ec534	-0.0029109241
187	0xbee5dbb0	-0.4489417
188	0x3ec773f8	0.38955665
189	0x3f701dc0	0.93795395
190	0x3eb3358a	0.35001785
191	0xbf85c861	-1.0451776
192	0xbeea8be2	-0.45809847
193	0xbf6d106c	-0.9260318
194	0x3e17ec09	0.14836134
195	0xbd985ebd	-0.07439945
196	0x3f0788be	0.52943027
197	0xbfa53f98	-1.2910032
198	0xbed00f3b	-0.4063662
199	0xbf33fc51	-0.7030688
200	0x3ee25cb8	0.44211364
201	0x3e69519a	0.22785035
202	0x3e140b29	0.14457382
203	0xbf97227a	-1.1807396
204	0x3f3cad89	0.73702294
205	0xbec6841a	-0.3877266
206	0x3f8a8e28	1.0824633
207	0x3f35a4c1	0.7095452
208	0xbe05bdf4	-0.13060743
209	0x3e86b5d8	0.2631061
210	0x3c7466d3	0.014917093
211	0x3e87d01d	0.26525965
212	0xbeb844ce	-0.35989994
213	0x3f270dd4	0.65255475
214	0xbf599cb4	-0.85004735
215	0xbe9ab35a	-0.3021496
216	0xbf1e3d11	-0.6181193
217	0xbd5d5964	-0.054040328
218	0xbf541398	-0.828424
219	0xbdf84f75	-0.1212453
220	0xbeda8940	-0.42682838
221	0x3d6310ef	0.05543607
222	0x3eb51030	0.35363913
223	0xbeccef00	-0.40026093
224	0x3f314ea9	0.6926065
225	0x3e6b1b5f	0.2295966
226	0xbeca1ed4	-0.39476645
227	0x3e55968d	0.20858212
228	0x3f13a9d0	0.5768099
229	0xbdc19402	-0.094520584
230	0x3f428761	0.7598782
231	0xbead7682	-0.33879477
232	0x3e1aed3d	0.15129562
233	0x3e843ca9	0.2582753
234	0xbc4d7764	-0.012540672
235	0x3cabfbea	0.020994145
236	0xbeb78c5f	-0.35849282
237	0x3f22f230	0.636508
238	0x3f3af78a	0.73033965
239	0xbd77033d	-0.060305823
240	0xbeba4a30	-0.36384726
241	0x3ea14019	0.31494215
242	0x3e227039	0.15863122
243	0xbdaee4fa	-0.085397676
244	0xbe4b847d	-0.19874759
245	0xbf19adbf	-0.6003074
246	0xbe5d7956	-0.21628317
247	0xbe99a048	-0.30005097
248	0xbe830b43	-0.2559453
249	0xbf8e32e8	-1.1109285
250	0x3e399e66	0.1812683
251	0xbeba7c28	-0.3642285
252	0xbd2a9e8a	-0.0416551
253	0xbeb1f6cf	-0.34758613
254	0x3e485266	0.19562683
255	0x3e19e75d	0.15029664

sequential/dense_1/MatMul f4 [7, 32]
0	0xbe547e62	-0.20751336
1	0xbe1587f4	-0.14602643
2	0x3f137c6e	0.5761174
3	0xbdcbc09c	-0.09948847
4	0xbf513189	-0.8171621
5	0xbdfbaf04	-0.12289241
6	0x3d244e13	0.04011352
7	0xbee8b849	-0.45453098
8	0xc01b9525	-2.430978
9	0x3e871dac	0.26389825
10	0xbd0e22d1	-0.034701172
11	0x3e944cd6	0.2896487
12	0xbf18a3eb	-0.5962512
13	0x3e74ec29	0.23918213
14	0xbfe85d12	-1.8153403
15	0xbdd3f766	-0.10349922
16	0xbf55e397	-0.835504
17	0xbe117b6d	-0.1420724
18	0xbeb3e3f6	-0.35134858
19	0xbf2c4d8c	-0.6730583
20	0x3e9215f8	0.28532386
21	0x3d1ed4e7	0.03877726
22	0x3c5f2a8c	0.013620984
23	0xbdcdab06	-0.10042386
24	0xbd2535ab	-0.040334385
25	0x3ec1cf7e	0.37853616
26	0xbe8f795e	-0.28022283
27	0x3d84bf7f	0.064818375
28	0xbd5e2ba1	-0.054240827
29	0xbf26642f	-0.6499662
30	0x3e20b6b0	0.1569469
31	0x3eb1be7f	0.3471565
32	0xbf2da3e5	-0.6782821
33	0xbe30b89b	-0.17257921
34	0xc01a61de	-2.4122233
35	0x3f497893	0.78699607
36	0x3ef8da6a	0.48604137
37	0xbfb66e90	-1.4252491
38	0xbd4a399d	-0.04937135
39	0xbee09170	-0.4386096
40	0xc034acd6	-2.823049
41	0xbe87f7a1	-0.26556113
42	0xbf8c9a7b	-1.0984644
43	0xbec47d1e	-0.38376707
44	0xbfccc4e8	-1.5997591
45	0xbfb40edc	-1.4067035
46	0xc06276ec	-3.5385084
47	0x3f08bd01	0.534134
48	0x3c816115	0.015793363
49	0xbf412cd6	-0.7545904
50	0x3e757d69	0.23973621
51	0xbf1f8357	-0.62309784
52	0xbe0bd095	-0.13653786
53	0x3ebcb1a3	0.36854276
54	0xbec485a9	-0.38383225
55	0xbe09735e	-0.13422915
56	0xbe7735c1	-0.24141599
57	0x3ed843c4	0.422392
58	0xbe40eb0b	-0.18839662
59	0xbf0d347f	-0.5515823
60	0x3f000fa8	0.5002389
61	0x3dc82cea	0.09774192
62	0xbef7ecab	-0.4842275
63	0xbe20a5a4	-0.15688187
64	0xbea8ff94	-0.3300749
65	0x3da1184b	0.07865962
66	0xbdbfa306	-0.09357266
67	0xbccea673	-0.025225854
68	0xbf2f802d	-0.68554956
69	0xbe93b7f6	-0.2885129
70	0x3d70e91c	0.05881606
71	0xbf051b7f	-0.5199508
72	0xbda69159	-0.081331916
73	0xbe2d2694	-0.16909248
74	0x3d8dd39c	0.06925127
75	0x3e9a6408	0.30154443
76	0x3e8946e1	0.2681189
77	0x3ddcda4a	0.10783823
78	0xbedb7fda	-0.4287098
79	0xbf78ad72	-0.97139657
80	0xbec7b4c6	-0.39005107
81	0xbe8812e8	-0.26576924
82	0xbd594aca	-0.05304984
83	0x3dd5c759	0.10438413
84	0x3e60ce6c	0.21953744
85	0xbda02e09	-0.078212805
86	0xbf0ce907	-0.5504307
87	0x3e553f61	0.20824958
88	0x3e6556fa	0.2239646
89	0xbe3d2ec0	-0.18474865
90	0xbf48d6da	-0.7845284
91	0xbe47a450	-0.19496274
92	0xbbb86344	-0.0056270678
93	0xbef8e9e0	-0.48615932
94	0x3e3a3851	0.18185546
95	0xbeddd0b0	-0.43323278
96	0xbb8d2d86	-0.0043084053
97	0xbfa35c6f	-1.2762583
98	0xbeeb97b2	-0.46014172
99	0xbf423b89	-0.75872093
100	0x3e67b605	0.22628029
101	0xbe321f47	-0.17394744
102	0xbe0cfac3	-0.13767533
103	0xbc71301b	-0.014720942
104	0xbf1cae6c	-0.61203647
105	0x3f5c0796	0.85949075
106	0xbf2e0f93	-0.67992514
107	0xbe8e3b25	-0.277795
108	0x3d0cb783	0.034354698
109	0x3edc8bd4	0.4307543
110	0xbf93734d	-1.1519562
111	0x3f0f2d1d	0.5592821
112	0x3eba329c	0.36366737
113	0x3e8c4161	0.2739363
114	0x3e956b77	0.29183552
115	0x3ea688f1	0.32526353
116	0xbf121939	-0.57069737
117	0xbec28c7c	-0.37997806
118	0xbea08e06	-0.31358355
119	0xbeb9d13e	-0.36292452
120	0xbf3f4c50	-0.7472582
121	0xbe98160a	-0.29704314
122	0x3eb715a1	0.3575869
123	0x3f3327f7	0.69982857
124	0xc0009d0d	-2.0095856
125	0x3ec6b40a	0.38809234
126	0x3ee65a5d	0.44990817
127	0xbed9dd22	-0.42551523
128	0xbf027190	-0.5095453
129	0xbe74c7a4	-0.23904282
130	0xbd44dfd2	-0.048065014
131	0xbf9eddc2	-1.2411425
132	0x3e765413	0.2405551
133	0xbe26a7ef	-0.16274999
134	0x3f1c458a	0.6104361
135	0x3eeb5aac	0.45967615
136	0xc0bfb6d8	-5.99107
137	0xbf89835a	-1.074321
138	0xbf86a111	-1.0517904
139	0xbcd9bec2	-0.026580218
140	0xbf98f422	-1.1949503
141	0xbec72819	-0.3889778
142	0xc0ae7b64	-5.4525623
143	0x3eb3e756	0.35137433
144	0x3e22f66b	0.15914313
145	0xbeaa17c4	-0.33221257
146	0xbed5e2a2	-0.4177447
147	0xbfc8af71	-1.567854
148	0xbe9f8a8c	-0.3116039
149	0xbeeb780c	-0.45990026
150	0x3ebd5191	0.36976293
151	0xbf0da131	-0.55324084
152	0x3f1e2ba0	0.61785316
153	0xbf677f87	-0.90428966
154	0x3eeca631	0.46220544
155	0x3f3dac7b	0.7409131
156	0xbf701fb3	-0.9379837
157	0x3e0047aa	0.12527338
158	0xbec1aa7f	-0.3782539
159	0x3eac99b2	0.3371101
160	0xbde58f4e	-0.11208974
161	0x3c27a9e9	0.010233381
162	0xbe6dc926	-0.23221263
163	0x3cb6f303	0.022332674
164	0xbf412105	-0.7544101
165	0xbe89fb8b	-0.26949725
166	0xbd7b7586	-0.061391376
167	0xbd5b6222	-0.053560384
168	0xbe0f4b79	-0.13993634
169	0xbda09fb7	-0.07842963
170	0xbf5177b3	-0.8182327
171	0x3e8048ad	0.25055447
172	0xbe99f38a	-0.30068618
173	0x3d1bf3ec	0.03807442
174	0xbf121c6b	-0.5707461
175	0xbe432fc7	-0.19061194
176	0xbea4a695	-0.32158342
177	0xbd86dc2b	-0.065849625
178	0x3d7f3b8d	0.06231265
179	0xbe05e6c2	-0.13076308
180	0x3e210306	0.1572381
181	0x3c6570fe	0.01400399
182	0x3db1ef39	0.08688206
183	0xbe842ffb	-0.25817856
184	0x3da5e2db	0.0809991
185	0x3e88e69e	0.26738447
186	0xbd883d49	-0.06652314
187	0xbeea709b	-0.45789036
188	0x3e02fb59	0.12791194
189	0x3e223f02	0.15844348
190	0x3e7aba46	0.2448512
191	0x3ec07b75	0.3759419
192	0xbe554b7e	-0.20829579
193	0xbe882801	-0.2659302
194	0xbf785249	-0.9700056
195	0xbe8b23b5	-0.2717568
196	0x3e449cbf	0.19200419
197	0xbf1ae37d	-0.6050337
198	0xbe1ce020	-0.15319872
199	0xbe9fd669	-0.3121827
200	0xbe62a68f	-0.2213385
201	0xbe2142ed	-0.15748186
202	0xbf1f8200	-0.6230774
203	0xbec76b55	-0.38949075
204	0xbf3a3ca4	-0.7274878
205	0xbe17e022	-0.14831594
206	0x3dc5b0e6	0.09652881
207	0xbeb2b9a1	-0.3490725
208	0xbeb1fb37	-0.34761974
209	0xbe6a0144	-0.22852045
210	0x3ddbd4e9	0.10733969
211	0xbeab1053	-0.33410892
212	0x3e86618c	0.26246297
213	0x3d9792d4	0.07401052
214	0x3e0a0b9f	0.13480996
215	0xbc4653e8	-0.012104966
216	0xbd14da60	-0.03634107
217	0xbd36d9a0	-0.044641137
218	0xbde335d3	-0.110942505
219	0xbd9022e1	-0.070379026
220	0xbc3d16b4	-0.011541057
221	0x3e5bf5da	0.21480504
222	0x3e47bd59	0.19505824
223	0x3e9adb97	0.3024566

unstack2 f4 [192]
0	0x3f1364bc	0.57575583
1	0xbd70f6dd	-0.058829177
2	0x3d9f3130	0.07773054
3	0xbe2194ff	-0.15779494
4	0xbd0a190d	-0.033715297
5	0x3e5d3064	0.21600491
6	0x3f5e0218	0.86721945
7	0xbe218099	-0.15771712
8	0x3e9300b1	0.28711465
9	0x3d9e7cf0	0.07738674
10	0x3f896d3c	1.0736461
11	0x3f208e0f	0.62716764
12	0xbe8715e3	-0.26383886
13	0x3f48e1dd	0.7846964
14	0xbd21fd1e	-0.039548032
15	0x3e3f50fb	0.18683235
16	0x3ead4fa0	0.33849812
17	0xbf422141	-0.7583199
18	0x3dd2bee3	0.10290315
19	0xbe21d5dc	-0.15804237
20	0x3f4e6370	0.8062048
21	0xbe06fdc2	-0.13182738
22	0x3ed96c44	0.42465413
23	0x3eca4d7d	0.39512244
24	0xbc987eec	-0.018615209
25	0x3ea60e1f	0.3243265
26	0xbe87a31d	-0.26491633
27	0x3eb9c6fa	0.3628462
28	0x3eb7dddb	0.3591145
29	0x3f3c2ae8	0.7350297
30	0xbf03601b	-0.5131852
31	0xbe3a00c4	-0.18164355
32	0xbe63afbe	-0.22235009
33	0x3e972718	0.29522014
34	0x3ec49156	0.38392133
35	0xbed8bcbc	-0.42331493
36	0x3e9e36eb	0.30901274
37	0x3f621594	0.88314176
38	0x3e86e936	0.263498
39	0x3ede4e39	0.43419054
40	0xbecaaf30	-0.39586782
41	0x3ea0ffc3	0.3144513
42	0xbe300d98	-0.17192686
43	0x3e1b21e0	0.15149641
44	0xbce74310	-0.02823022
45	0xbccc481d	-0.02493673
46	0x3d60a554	0.05484517
47	0x3e90d4e1	0.28287414
48	0x3f789efd	0.97117597
49	0x3ee2b20c	0.44276464
50	0xb9bc6bac	-0.00035938376
51	0xbf78cbca	-0.9718596
52	0x3d7fcc2e	0.06245058
53	0xbf65080f	-0.8946542
54	0x3d58294b	0.052773755
55	0x3e79b2d5	0.24384625
56	0x3e83930a	0.2569812
57	0x3ec3b68b	0.38225207
58	0xbfaabc56	-1.3338726
59	0x3da08c36	0.07839243
60	0xbfa774ba	-1.3082497
61	0xbf269f8c	-0.650872
62	0x3f04d10f	0.518815
63	0x3f0ae42b	0.54254407
64	0x3f0dc728	0.55382013
65	0xbeae2390	-0.34011507
66	0x3ea1890b	0.31549868
67	0x3e1759b5	0.14780314
68	0xbe9b4dab	-0.30332693
69	0xbe0201c2	-0.12695983
70	0x3ddda1bf	0.10821866
71	0xbef888d8	-0.48541903
72	0x3edeaf12	0.43492943
73	0xbe9c086e	-0.3047518
74	0xbe4618da	-0.19345418
75	0xbe5c1620	-0.21492815
76	0x3fa6072a	1.2970936
77	0x3f5d175e	0.8636378
78	0x3dd815b7	0.10551017
79	0xbd9f4401	-0.077766426
80	0x3e5ae772	0.21377352
81	0x3e7aa017	0.24475132
82	0x3d64dba1	0.055873517
83	0x3e81219a	0.25220948
84	0xbf1028f0	-0.56312466
85	0x3e0f9ae1	0.14023925
86	0xbe903e99	-0.28172758
87	0xbd419976	-0.047265492
88	0xbefccec8	-0.49376512
89	0xbf3d9d97	-0.7406859
90	0xbd776a60	-0.06040418
91	0x3ecde9b9	0.4021738
92	0xbe43c5a6	-0.19118366
93	0x3ebeccde	0.37265676
94	0xbebcaf1d	-0.3685235
95	0x3ed1c1c9	0.4096816
96	0xbf2a92fe	-0.6663054
97	0x3e5eb09f	0.21747063
98	0xbf0e34ea	-0.5554949
99	0xbf514163	-0.817404
100	0xbe839aea	-0.25704128
101	0x3dcb10a3	0.099152826
102	0xbfb35fce	-1.4013612
103	0xbf0ef0c0	-0.55836105
104	0xbea3a781	-0.31963733
105	0xbe7a9863	-0.24472193
106	0x3ee4824e	0.44630665
107	0xbea18770	-0.31548643
108	0xbdbca108	-0.09210402
109	0xbf29602b	-0.66162366
110	0x3e6d862b	0.23195712
111	0x3e8d1119	0.27552107
112	0x3e09dff5	0.13464339
113	0x3de57624	0.11204174
114	0x3eb98f35	0.3624207
115	0x3e20d113	0.15704755
116	0x3f820225	1.0156904
117	0x3ed52dfa	0.4163664
118	0x3e917aec	0.28414094
119	0x3e98a45f	0.29812905
120	0x3e6f2a8b	0.23356073
121	0x3dc2f38b	0.095191084
122	0x3d1dfb15	0.03856953
123	0x3cc82f4b	0.024436614
124	0xbcbd9610	-0.023142844
125	0x3e8962f0	0.26833296
126	0xbdd6ffc7	-0.104980044
127	0xbee115fe	-0.4396209
128	0xbf04ca33	-0.5187103
129	0xbdd3dde9	-0.103450604
130	0x3d300c59	0.042980526
131	0xbf0b50b0	-0.54419994
132	0xbd84fb03	-0.06493189
133	0x3e823e39	0.25438097
134	0xbd00f04c	-0.031479165
135	0xbf09a3e9	-0.5376573
136	0xbe1371f0	-0.14398932
137	0xbda40011	-0.08007825
138	0xbe63cdde	-0.22246501
139	0x3e94ea32	0.29084927
140	0x3ef79863	0.4835845
141	0x3e90f1d0	0.28309488
142	0xbe9c6ea1	-0.30553153
143	0xbe1ea5cc	-0.15492934
144	0x3d36242a	0.044468082
145	0x3e718577	0.23586069
146	0x3e79ed2a	0.24406877
147	0x3da7b65a	0.08189078
148	0xbe26d462	-0.16291955
149	0xbf1f1085	-0.6213458
150	0xbe4e1053	-0.20123415
151	0x3e9dec0c	0.30844152
152	0x3e2efe58	0.17089212
153	0x3cdf76d8	0.027278349
154	0xbdd2d4e7	-0.10294514
155	0xbe0dfd20	-0.13866091
156	0x3f104d90	0.5636835
157	0xbee2aa4b	-0.44270548
158	0xbd440160	-0.047852874
159	0x3f0a378b	0.53991
160	0x3d98169e	0.07426189
161	0xbe2baa60	-0.16764212
162	0x3d3c9c85	0.046047706
163	0x3df14162	0.11780049
164	0xbe269468	-0.1626755
165	0x3d2afc03	0.041744243
166	0xbe8ab408	-0.27090478
167	0xbd995500	-0.074869156
168	0x3e32f9b8	0.17478073
169	0xbe995144	-0.29944813
170	0xbf3f3ad7	-0.7469916
171	0xbe671536	-0.22566685
172	0x3c4e21d2	0.012581306
173	0x3c935a1d	0.017987305
174	0xbee5fc98	-0.44919276
175	0xbd7ed716	-0.06221684
176	0xbe9f7590	-0.3114438
177	0x3e6c2191	0.2305968
178	0xbe5a5243	-0.21320443
179	0x3e092c33	0.13395767
180	0xbe713229	-0.23554291
181	0xbe71013a	-0.23535624
182	0xbec6b18c	-0.38807333
183	0xbdce1259	-0.10062093
184	0xbe3edd25	-0.18639047
185	0xbdf6b679	-0.12046523
186	0xbe50447c	-0.20338625
187	0x3e94461b	0.28959736
188	0x3e98260f	0.29716536
189	0x3d4c71d8	0.049913257
190	0xba9a857f	-0.0011789053
191	0x3dcfb8e6	0.101426885

unstack3 f4 [192]
0	0x3f1364bc	0.57575583
1	0xbd70f6dd	-0.058829177
2	0x3d9f3130	0.07773054
3	0xbe2194ff	-0.15779494
4	0xbd0a190d	-0.033715297
5	0x3e5d3064	0.21600491
6	0x3f5e0218	0.86721945
7	0xbe218099	-0.15771712
8	0x3e9300b1	0.28711465
9	0x3d9e7cf0	0.07738674
10	0x3f896d3c	1.0736461
11	0x3f208e0f	0.62716764
12	0xbe8715e3	-0.26383886
13	0x3f48e1dd	0.7846964
14	0xbd21fd1e	-0.039548032
15	0x3e3f50fb	0.18683235
16	0x3ead4fa0	0.33849812
17	0xbf422141	-0.7583199
18	0x3dd2bee3	0.10290315
19	0xbe21d5dc	-0.15804237
20	0x3f4e6370	0.8062048
21	0xbe06fdc2	-0.13182738
22	0x3ed96c44	0.42465413
23	0x3eca4d7d	0.39512244
24	0xbc987eec	-0.018615209
25	0x3ea60e1f	0.3243265
26	0xbe87a31d	-0.26491633
27	0x3eb9c6fa	0.3628462
28	0x3eb7dddb	0.3591145
29	0x3f3c2ae8	0.7350297
30	0xbf03601b	-0.5131852
31	0xbe3a00c4	-0.18164355
32	0xbe63afbe	-0.22235009
33	0x3e972718	0.29522014
34	0x3ec49156	0.38392133
35	0xbed8bcbc	-0.42331493
36	0x3e9e36eb	0.30901274
37	0x3f621594	0.88314176
38	0x3e86e936	0.263498
39	0x3ede4e39	0.43419054
40	0xbecaaf30	-0.39586782
41	0x3ea0ffc3	0.3144513
42	0xbe300d98	-0.17192686
43	0x3e1b21e0	0.15149641
44	0xbce74310	-0.02823022
45	0xbccc481d	-0.02493673
46	0x3d60a554	0.05484517
47	0x3e90d4e1	0.28287414
48	0x3f789efd	0.97117597
49	0x3ee2b20c	0.44276464
50	0xb9bc6bac	-0.00035938376
51	0xbf78cbca	-0.9718596
52	0x3d7fcc2e	0.06245058
53	0xbf65080f	-0.8946542
54	0x3d58294b	0.052773755
55	0x3e79b2d5	0.24384625
56	0x3e83930a	0.2569812
57	0x3ec3b68b	0.38225207
58	0xbfaabc56	-1.3338726
59	0x3da08c36	0.07839243
60	0xbfa774ba	-1.3082497
61	0xbf269f8c	-0.650872
62	0x3f04d10f	0.518815
63	0x3f0ae42b	0.54254407
64	0x3f0dc728	0.55382013
65	0xbeae2390	-0.34011507
66	0x3ea1890b	0.31549868
67	0x3e1759b5	0.14780314
68	0xbe9b4dab	-0.30332693
69	0xbe0201c2	-0.12695983
70	0x3ddda1bf	0.10821866
71	0xbef888d8	-0.48541903
72	0x3edeaf12	0.43492943
73	0xbe9c086e	-0.3047518
74	0xbe4618da	-0.19345418
75	0xbe5c1620	-0.21492815
76	0x3fa6072a	1.2970936
77	0x3f5d175e	0.8636378
78	0x3dd815b7	0.10551017
79	0xbd9f4401	-0.077766426
80	0x3e5ae772	0.21377352
81	0x3e7aa017	0.24475132
82	0x3d64dba1	0.055873517
83	0x3e81219a	0.25220948
84	0xbf1028f0	-0.56312466
85	0x3e0f9ae1	0.14023925
86	0xbe903e99	-0.28172758
87	0xbd419976	-0.047265492
88	0xbefccec8	-0.49376512
89	0xbf3d9d97	-0.7406859
90	0xbd776a60	-0.06040418
91	0x3ecde9b9	0.4021738
92	0xbe43c5a6	-0.19118366
93	0x3ebeccde	0.37265676
94	0xbebcaf1d	-0.3685235
95	0x3ed1c1c9	0.4096816
96	0xbf2a92fe	-0.6663054
97	0x3e5eb09f	0.21747063
98	0xbf0e34ea	-0.5554949
99	0xbf514163	-0.817404
100	0xbe839aea	-0.25704128
101	0x3dcb10a3	0.099152826
102	0xbfb35fce	-1.4013612
103	0xbf0ef0c0	-0.55836105
104	0xbea3a781	-0.31963733
105	0xbe7a9863	-0.24472193
106	0x3ee4824e	0.44630665
107	0xbea18770	-0.31548643
108	0xbdbca108	-0.09210402
109	0xbf29602b	-0.66162366
110	0x3e6d862b	0.23195712
111	0x3e8d1119	0.27552107
112	0x3e09dff5	0.13464339
113	0x3de57624	0.11204174
114	0x3eb98f35	0.3624207
115	0x3e20d113	0.15704755
116	0x3f820225	1.0156904
117	0x3ed52dfa	0.4163664
118	0x3e917aec	0.28414094
119	0x3e98a45f	0.29812905
120	0x3e6f2a8b	0.23356073
121	0x3dc2f38b	0.095191084
122	0x3d1dfb15	0.03856953
123	0x3cc82f4b	0.024436614
124	0xbcbd9610	-0.023142844
125	0x3e8962f0	0.26833296
126	0xbdd6ffc7	-0.104980044
127	0xbee115fe	-0.4396209
128	0xbeae30d6	-0.34021634
129	0x3edd550f	0.43228957
130	0x3ddaee41	0.106899746
131	0x3d6a7bc5	0.057246942
132	0xbe47b3d0	-0.19502187
133	0x3d82ba93	0.063832425
134	0x3e0f8c2d	0.14018317
135	0xbebb5c23	-0.36593732
136	0xbd8fdf2f	-0.07024991
137	0xbe30607b	-0.17224304
138	0xbe77ef23	-0.24212317
139	0xbc273fc2	-0.010208072
140	0x3ee91060	0.45520306
141	0x3e4c09b7	0.19925581
142	0x3f0413a4	0.5159247
143	0xbe4bacbd	-0.19890113
144	0x3f1f4714	0.6221783
145	0x3e167e85	0.14696701
146	0x3e580f62	0.21099618
147	0xbc9d1fed	-0.019180262
148	0xbdfff4e7	-0.12497883
149	0xbde7db16	-0.11321084
150	0xbe55e3c5	-0.20887668
151	0x3ef9e9b6	0.4881112
152	0x3d8b7985	0.068102874
153	0x3dbec6c5	0.09315256
154	0xbf670e2f	-0.9025602
155	0x3e09a37e	0.13441274
156	0x3eef69d0	0.46760416
157	0xbebf1fae	-0.37328857
158	0xbc47dac1	-0.012198151
159	0x3f16176a	0.5862948
160	0xbea7712a	-0.32703525
161	0xbe6e30d7	-0.23260818
162	0xbe48e0f9	-0.1961707
163	0x3d49851a	0.0491992
164	0xbf116386	-0.56792486
165	0xbd53f501	-0.051747326
166	0xbf843e1e	-1.0331457
167	0xbee0834d	-0.43850175
168	0x3e1b87c9	0.15188517
169	0xbef82f89	-0.48473766
170	0xbf2bca03	-0.6710512
171	0xbc956340	-0.018235803
172	0xbd20a941	-0.039223913
173	0x3ca30ed3	0.01990453
174	0xbef800df	-0.48438165
175	0x3eac749d	0.3368272
176	0xbed66e98	-0.4188125
177	0xbdf29b28	-0.11846
178	0xbeca4852	-0.395083
179	0x3f9742af	1.1817225
180	0xbe5dcd96	-0.21660456
181	0xbe272596	-0.16322932
182	0x3b829922	0.00398554
183	0xbdd8dfa3	-0.1058953
184	0xbe7d29f9	-0.24723043
185	0xbed30c65	-0.41220394
186	0xbe89a1b4	-0.26881182
187	0x3e4b708b	0.1986715
188	0x3ef6f61e	0.48234648
189	0x3e43d80a	0.19125381
190	0xbdfd9a14	-0.12382904
191	0x3e64a59c	0.223288

while/MatMul_1 f4 [192, 64]
0	0xbfc99838	-1.5749578
1	0xbeb05978	-0.3444326
2	0x3e8d7607	0.2762911
3	0x3e43c4d4	0.19118053
4	0xbf732b4b	-0.94987935
5	0x3ee78be1	0.45223907
6	0xbe89fda9	-0.2695134
7	0xbef902e9	-0.48635033
8	0x3eaabbab	0.33346304
9	0xbeb76d68	-0.35825658
10	0xbe26a5c4	-0.16274172
11	0x3da31568	0.07963067
12	0xbd182d5f	-0.037152644
13	0xbd1f68e2	-0.038918383
14	0xbe5596cd	-0.20858307
15	0x3f442067	0.7661194
16	0x3dda7e69	0.10668642
17	0x3edd60c3	0.43237886
18	0x3f33f8b5	0.7030137
19	0x3ecaa797	0.39580986
20	0x3e2da59a	0.16957703
21	0x3f54d96b	0.83144253
22	0xbe0ae2fc	-0.1356315
23	0x3e8c9a84	0.27461636
24	0xbf195445	-0.5989421
25	0x3e0d7c4e	0.1381695
26	0xbe7dace5	-0.24772985
27	0xbf7ccb21	-0.9874745
28	0xbe90869a	-0.28227693
29	0x3f1bee62	0.6091062
30	0xbf9e798a	-1.2380841
31	0x3ce3dbcf	0.027814774
32	0x3f1d30f6	0.61402833
33	0xbeb9b6b0	-0.36272192
34	0xbf120c41	-0.5704995
35	0x3f11f62e	0.57016265
36	0x3ebf209f	0.37329575
37	0xbbb9cb9c	-0.005670024
38	0xbe044cac	-0.12919873
39	0x3f06889a	0.5255219
40	0x3f1f69ee	0.6227101
41	0x3d8e22cb	0.0694023
42	0x3d4da0be	0.050202124
43	0x3f55e54a	0.8355299
44	0xbefbfa59	-0.49214438
45	0x3ee4a19d	0.4465455
46	0x3f13ac95	0.57685214
47	0xbd9d0b53	-0.076681755
48	0x3f5a32f3	0.8523399
49	0x3e191a86	0.14951524
50	0xbc5f45fa	-0.013627524
51	0x3eb1479d	0.3462495
52	0x3f437bd9	0.7636085
53	0xbfc1be62	-1.5136225
54	0x3e9b32cb	0.3031219
55	0x3e779dbc	0.24181265
56	0xbe8fb0d0	-0.28064585
57	0x3dd49b92	0.10381235
58	0x3e7a1532	0.24422148
59	0x3f0a7390	0.54082584
60	0xbdba6e15	-0.09103028
61	0x3f53ee13	0.8278515
62	0xbe67dd8b	-0.22643106
63	0xbe49eff2	-0.19720438
64	0xbee7295c	-0.45148742
65	0x3f7dc6f2	0.9913169
66	0x3f250a3c	0.6446874
67	0x3f1e7bd2	0.61907685
68	0x3f04ea21	0.5191975
69	0xbe9f789c	-0.31146705
70	0xbf99bf60	-1.2011528
71	0x3e0b0337	0.13575445
72	0xbe3d0545	-0.18459041
73	0xbf33f464	-0.70294785
74	0x3e16e312	0.14735058
75	0xbe6479fd	-0.2231216
76	0xbe788aca	-0.24271694
77	0xbeb0831c	-0.3447503
78	0x3e32797f	0.1742916
79	0x3f13e321	0.57768446
80	0xbe7f33a9	-0.2492205
81	0xbe303b22	-0.17210057
82	0x3ea81a1a	0.32832414
83	0xbd3658a3	-0.044518124
84	0x3f42f541	0.7615548
85	0xbed85ab7	-0.4225671
86	0x3e8f68b0	0.28009558
87	0xbe3ab388	-0.18232548
88	0xbe648a02	-0.22318271
89	0x3e9196d0	0.28435373
90	0x3f1dfe71	0.6171637
91	0x3f871096	1.0551937
92	0xbf7b0ae8	-0.98063517
93	0xbe59159a	-0.21199647
94	0x3db25ec8	0.08709484
95	0xbe5a2dac	-0.21306485
96	0xbe67625a	-0.22596112
97	0xbd8113f3	-0.06302633
98	0x3ee6548f	0.44986388
99	0x3ee3f222	0.4452067
100	0xbd599437	-0.053119864
101	0x3f8b2dc2	1.0873339
102	0x3e510919	0.20413627
103	0x3ee66c06	0.4500429
104	0x3f19255f	0.5982265
105	0xbf3cfdd1	-0.73824793
106	0x3f234d80	0.6379013
107	0x3e9e51c2	0.3092175
108	0xbe19be4f	-0.15014003
109	0x3efb5acb	0.49092707
110	0xbf087c04	-0.5331423
111	0x3ec2c700	0.3804245
112	0x3efc34eb	0.49259123
113	0xbe5f01ad	-0.21777983
114	0xbeafb5b5	-0.3431832
115	0x3f433084	0.76245904
116	0x3f48f712	0.78502
117	0xbedb5e08	-0.42845178
118	0x3ebe3434	0.37149203
119	0x3f78b44e	0.97150123
120	0xbd43f244	-0.047838464
121	0x3ec5e11c	0.38648307
122	0x3e47d356	0.19514212
123	0x3e5a8e77	0.21343409
124	0xbec4702f	-0.3836684
125	0xbe2667c8	-0.16250527
126	0xbe46886a	-0.19387975
127	0xbf2f3f95	-0.68456393
128	0xbf0e7877	-0.55652565
129	0xbd69586a	-0.056969084
130	0x3f55e4da	0.83552325
131	0xbefa167b	-0.48845276
132	0x3d31b478	0.043385
133	0x3f8fe0e2	1.1240504
134	0xbe63ed89	-0.22258581
135	0xbfc4c51f	-1.5372657
136	0x3ef1957d	0.47184363
137	0xbee659ee	-0.44990486
138	0xbf77df99	-0.9682556
139	0x3f06c7fe	0.52648914
140	0x3fe7cb6c	1.8108954
141	0x3f6edd8a	0.9330679
142	0x3e09eed0	0.13470006
143	0xbed814a3	-0.42203245
144	0xbe218da6	-0.15776691
145	0x3e592b60	0.21207952
146	0x3f9d05b6	1.2267368
147	0xbe352505	-0.17689903
148	0x3e368e18	0.17827642
149	0xbfa12172	-1.2588332
150	0xbe4a2cbf	-0.19743632
151	0x3f1bbdf8	0.60836744
152	0xbf3554f8	-0.7083278
153	0xbcb37cfd	-0.021910185
154	0x3e320f12	0.17388561
155	0xbf481403	-0.78155535
156	0x3f84da95	1.0379206
157	0xbf9f9423	-1.2467083
158	0xbf5c6720	-0.86094856
159	0x3fc1e35e	1.5147512
160	0xbe17a94f	-0.1481068
161	0xbf4a344a	-0.78986037
162	0xbec2070a	-0.37895995
163	0x3f4813bf	0.7815513
164	0xbf3a8a18	-0.72866964
165	0x3f07ac26	0.5299705
166	0xbf37bb4c	-0.7177017
167	0x3c3df3cc	0.01159377
168	0x3f0148db	0.50501794
169	0x3c68c5d9	0.014207327
170	0xbfc2a7f6	-1.5207508
171	0xbe69e474	-0.22841054
172	0xbef81974	-0.4845692
173	0x3f8ad21b	1.0845369
174	0xbdffca0e	-0.12489711
175	0x3f39bc1d	0.72552663
176	0xbfc3dd0e	-1.5301836
177	0x3f9965d4	1.19842
178	0xbfd96a81	-1.6985627
179	0xbea68602	-0.32524115
180	0xbfdb2260	-1.7119865
181	0xbf70c294	-0.940469
182	0xbe1ce082	-0.15320018
183	0x3e7fd55b	0.24983732
184	0xbfa1eb5b	-1.264995
185	0x3eacfd06	0.33786792
186	0x3eda69b1	0.4265876
187	0x3f6ff149	0.93727547
188	0xbf91349f	-1.1344184
189	0x3f08308e	0.5319909
190	0xbf237b37	-0.63859886
191	0x3d76f7df	0.060294982
192	0x3f840e53	1.0316871
193	0x3ed4807c	0.41504276
194	0xbf2059d1	-0.6263705
195	0xbe808cc6	-0.25107402
196	0x3ee0531a	0.438134
197	0xbd837032	-0.06417884
198	0x3ea39ed0	0.31957102
199	0x3db3ead1	0.08785022
200	0xbf42179c	-0.75817275
201	0x3f590a3c	0.8478124
202	0x3f87f6b7	1.0622166
203	0xbe92f72e	-0.28704208
204	0x3df775ce	0.12083016
205	0xbdaf99af	-0.08574235
206	0x3ef1a74c	0.4719795
207	0x3ebbeb2e	0.36702865
208	0x3c8d425e	0.01724356
209	0xbebbd672	-0.36687046
210	0xbef9b8fb	-0.4877394
211	0xbf32ff87	-0.69921154
212	0xbe51b8d3	-0.20480661
213	0x3d94a0a5	0.07257203
214	0xbf9433d7	-1.157832
215	0xbed3b4c2	-0.41348845
216	0x3f4e9a09	0.8070379
217	0xbf665e17	-0.8998732
218	0x3e9eb490	0.30997133
219	0x3eb67024	0.35632432
220	0x3e98aac5	0.29817787
221	0xbe28027f	-0.16407202
222	0x3e140980	0.14456749
223	0xbdbef404	-0.09323886
224	0xbebf4312	-0.37355858
225	0x3edd4d78	0.43223166
226	0x3f02316b	0.50856656
227	0xbf3e0a81	-0.7423478
228	0x3e716319	0.23572959
229	0x3e2fb77d	0.17159839
230	0x3e088d57	0.13335167
231	0xbe6e8fde	-0.23297068
232	0x3d82d19c	0.06387636
233	0xbe36f7a9	-0.17867912
234	0x3ed37f96	0.41308278
235	0xbed2ecf2	-0.411964
236	0x3ea63160	0.32459545
237	0xbf8a8d95	-1.0824457
238	0xbf353b59	-0.7079368
239	0xbf39e8d6	-0.72620904
240	0x3e6c88e7	0.23099099
241	0x3e783021	0.2423711
242	0x3e615697	0.22005688
243	0xbd5e0851	-0.05420715
244	0x3d42673b	0.04746173
245	0xbde23b22	-0.11046435
246	0xbf33f594	-0.702966
247	0xbe29b600	-0.16573334
248	0xbe914804	-0.28375256
249	0xbef76f23	-0.48326978
250	0x3eaaa331	0.3332763
251	0xbe1c9fd9	-0.15295352
252	0xbe5ed7ed	-0.21762057
253	0x3eefb3c7	0.46816847
254	0x3e8e6fe2	0.27819735
255	0x3df39422	0.118934885
