wandb_model.onnx (onnx, 120542 bytes, 9 tensors)

sequential/gru/gru_cell/ReadVariableOp/resource:0 f4 [2, 192]
000000 d9 a6 78 3e 44 1d 26 be 45 2d 0d be ad 5e 09 be
       0.24282397 -0.16222101 -0.137868 -0.13415022
000010 87 da 2a 3d d0 06 4c 3d 4c 8b a6 3e ca fe 20 3e
       0.04171231 0.049811184 0.3252815 0.15722194
000020 ed 9c 0b 3d 7f 7c c5 3e ef 0c ae 3e 65 d3 d9 3a
       0.034085203 0.38571545 0.33994243 0.0016618787
000030 d2 18 c8 be 98 2b 03 3f 14 eb 45 3b eb 4a 7e be
       -0.39081436 0.51238394 0.0030199932 -0.24833266
000040 18 51 37 bd 2b 8e 04 3f 01 61 42 3e 58 3d 36 be
       -0.04475507 0.5177943 0.18982317 -0.17796838
000050 1d 5d 59 bd 48 b8 a6 3b c7 82 8f 3e ea 6e e2 be
       -0.053067315 0.005087886 0.28029463 -0.44225246
000060 99 9a 83 3e f5 5e 01 bf 80 95 bb 3c 21 11 aa be
       0.25703886 -0.5053552 0.022898436 -0.33216193
000070 55 cc 00 bf e7 e8 c0 bd 74 d9 fc bd 80 48 29 3e
       -0.50311786 -0.094194226 -0.123461634 0.16531563
000080 d0 d5 15 3e 4b c7 89 be d0 fd 03 3f 29 77 af 3e
       0.14632344 -0.2690986 0.5155916 0.342706
000090 61 51 71 3d 19 9f b2 3d 21 13 73 be c9 b4 a5 3d
       0.0589155 0.08721752 -0.23737766 0.08091123
0000a0 95 54 0e 3f 5e 88 b7 3e c0 aa 09 3c d7 82 ce 3d
       0.5559781 0.35846227 0.008402526 0.100835495
0000b0 a7 6f 51 be 16 76 5b be 3d 15 ef 3d 83 79 d0 bd
       -0.20452748 -0.21431765 0.11673973 -0.101794265
0000c0 39 f0 3d 3d a1 1d 86 be fd c8 fe 3d f3 89 03 3f
       0.046371672 -0.2619448 0.12440679 0.5138237
0000d0 f4 34 f7 3e b8 9c 80 bd f8 81 50 be 74 b1 d1 3d
       0.48282588 -0.06279892 -0.20362079 0.102389246
0000e0 40 24 9a 3d cd 81 7f be 93 ce 04 bb 7a 29 f4 3e
       0.075264454 -0.24951859 -0.002026473 0.47687894
0000f0 e3 ba aa bd 7a a6 bc 3e 7d 68 8e 3e bf 87 6b 3c
       -0.08336427 0.36845762 0.27814093 0.014375626
000100 8c 54 bc be aa 09 84 be a4 aa 6d bf 2e 8a 25 bf
       -0.36783254 -0.25788623 -0.928385 -0.6466397
000110 ca 02 41 bf 44 f9 cc be af 30 09 bd 1e dc cd be
       -0.7539488 -0.40033925 -0.033493694 -0.40207
000120 25 b7 47 bf 47 7a ec be 7c bc 89 be bf 00 26 be
       -0.7801383 -0.4618704 -0.26901615 -0.16211222
000130 90 80 fd 3d fe e6 27 bf 1b f0 c4 bc 9d 0d 91 bd
       0.12378037 -0.6558684 -0.024040272 -0.07082675
000140 80 11 4c bf 39 43 05 be 76 dd 20 be ba 59 ba 3e
       -0.797142 -0.13013925 -0.1570948 0.3639658
000150 b6 c0 aa 3d 44 ca 09 bf 6e 2f a3 bd 9c ad 68 3e
       0.08337538 -0.5382426 -0.07968031 0.22722477
000160 d4 86 d7 be 5b 49 aa 3d 78 05 bd be d4 81 29 3e
       -0.42095053 0.08314773 -0.36918235 0.16553432
000170 bd e8 38 3e af 99 f6 bc 2d 1b e5 bd 4a bc 8a be
       0.18057533 -0.030102579 -0.11186824 -0.27096778
000180 2e 39 3b 3d 5f 6d 45 3c a4 85 ef be 13 8b 21 bf
       0.045708828 0.012050002 -0.46781647 -0.63102835
000190 3a 99 cd 3b b8 ac 1c be 71 22 9b 3d 0e 96 da be
       0.0062743695 -0.15300262 0.075749286 -0.42692608
0001a0 aa 5f e9 be 35 11 14 bf 2b 8c 1e be 0d 17 9f be
       -0.45580798 -0.57838756 -0.15483157 -0.31072274
0001b0 43 39 2a be 7e ab a1 be 58 6a c4 be c0 bc f8 bc
       -0.16623406 -0.3157615 -0.38362384 -0.03036344
0001c0 b2 8a a0 be e1 9c fe bd 28 90 dd bd 63 eb 41 be
       -0.31355816 -0.12432266 -0.10818511 -0.18937449
0001d0 0e 85 ba be 30 97 82 be f9 8f 71 be de 3e 04 bf
       -0.36429638 -0.25505972 -0.23590077 -0.5165843
0001e0 7d ff 81 bf f2 db 4f bd 1c 8f cb be f8 eb 94 be
       -1.0156094 -0.050746866 -0.3975762 -0.2908628
0001f0 0d 90 c8 be 77 73 0e be 6d ce a2 be 45 67 46 bd
       -0.39172402 -0.13911234 -0.31798115 -0.04843833
000200 c4 5f 88 3d 71 4c 55 be cf 89 a5 bc 2e a6 cc 39
       0.06658891 -0.20829941 -0.020207314 0.00039033726
000210 70 27 46 3e 75 5a bc bd bd c7 a0 3d 79 15 c4 bc
       0.19350982 -0.09196941 0.07850597 -0.02393602
000220 b9 db ef bc 5a 9f a6 bd a3 94 07 3e 36 1e 84 3d
       -0.029279577 -0.08135863 0.13240294 0.06451075
000230 6b ec d2 bd 9c a3 ae 3d f1 a5 3d 3d c9 07 41 be
       -0.102989994 0.085273 0.046300832 -0.18850626
000240 1e c4 56 3e cc 71 0c be ad 37 3d be f5 bd e6 3c
       0.2097325 -0.13715285 -0.1847827 0.02816675
000250 75 3d 7e bc bc c8 41 bd 70 a5 92 bd 1b 1a 0d bd
       -0.015517582 -0.047310576 -0.07160461 -0.034448724
000260 c1 d2 bc 3c 67 88 08 3d 12 64 34 3b 23 48 5c bd
       0.023049714 0.03333321 0.0027525467 -0.053779732
000270 2e b3 5d be 62 ba 27 be 6a e9 41 bd b3 e5 0f 3e
       -0.21650383 -0.16379693 -0.04734174 0.14052467
000280 29 4d 9a 3d c7 07 70 be 5f b2 92 bd ca 00 1c 3d
       0.075342484 -0.23440467 -0.07162928 0.03808669
000290 07 dd c3 bd 5a 4d ec bc f8 3f 34 bd 42 62 2f bd
       -0.09563642 -0.028845478 -0.044006318 -0.042818315
0002a0 86 0c 10 3e 84 01 03 bd 41 43 a0 3d 69 d3 a9 bd
       0.14067277 -0.031983867 0.07825328 -0.082922764
0002b0 62 5d 0e be fe 8f 21 3d e4 bc 2c bd 3f e4 13 3e
       -0.1390281 0.039443962 -0.042172328 0.14442538
0002c0 71 fd 5e 3d 0d 00 b8 bd eb f7 bc bd 2e ae 98 bd
       0.05444092 -0.08984385 -0.09226974 -0.07455097
0002d0 3b 19 2e bd f2 ff 31 bd cd d9 c7 bd 11 3d b6 3d
       -0.04250453 -0.04345698 -0.09758339 0.08898366
0002e0 6e 91 9f 3d 34 9e 8e be 1d 48 47 bd 9f db e0 3b
       0.077914104 -0.27855074 -0.048652757 0.0068621184
0002f0 06 01 f2 3c 1d 41 9d 3d ac 19 1e 3c 6f 90 ee bb
       0.029541504 0.07678435 0.009649675 -0.0072804014
000300 d9 a6 78 3e 44 1d 26 be 45 2d 0d be ad 5e 09 be
       0.24282397 -0.16222101 -0.137868 -0.13415022
000310 87 da 2a 3d d0 06 4c 3d 4c 8b a6 3e ca fe 20 3e
       0.04171231 0.049811184 0.3252815 0.15722194
000320 ed 9c 0b 3d 7f 7c c5 3e ef 0c ae 3e 65 d3 d9 3a
       0.034085203 0.38571545 0.33994243 0.0016618787
000330 d2 18 c8 be 98 2b 03 3f 14 eb 45 3b eb 4a 7e be
       -0.39081436 0.51238394 0.0030199932 -0.24833266
000340 18 51 37 bd 2b 8e 04 3f 01 61 42 3e 58 3d 36 be
       -0.04475507 0.5177943 0.18982317 -0.17796838
000350 1d 5d 59 bd 48 b8 a6 3b c7 82 8f 3e ea 6e e2 be
       -0.053067315 0.005087886 0.28029463 -0.44225246
000360 99 9a 83 3e f5 5e 01 bf 80 95 bb 3c 21 11 aa be
       0.25703886 -0.5053552 0.022898436 -0.33216193
000370 55 cc 00 bf e7 e8 c0 bd 74 d9 fc bd 80 48 29 3e
       -0.50311786 -0.094194226 -0.123461634 0.16531563
000380 d0 d5 15 3e 4b c7 89 be d0 fd 03 3f 29 77 af 3e
       0.14632344 -0.2690986 0.5155916 0.342706
000390 61 51 71 3d 19 9f b2 3d 21 13 73 be c9 b4 a5 3d
       0.0589155 0.08721752 -0.23737766 0.08091123
0003a0 95 54 0e 3f 5e 88 b7 3e c0 aa 09 3c d7 82 ce 3d
       0.5559781 0.35846227 0.008402526 0.100835495
0003b0 a7 6f 51 be 16 76 5b be 3d 15 ef 3d 83 79 d0 bd
       -0.20452748 -0.21431765 0.11673973 -0.101794265
0003c0 39 f0 3d 3d a1 1d 86 be fd c8 fe 3d f3 89 03 3f
       0.046371672 -0.2619448 0.12440679 0.5138237
0003d0 f4 34 f7 3e b8 9c 80 bd f8 81 50 be 74 b1 d1 3d
       0.48282588 -0.06279892 -0.20362079 0.102389246
0003e0 40 24 9a 3d cd 81 7f be 93 ce 04 bb 7a 29 f4 3e
       0.075264454 -0.24951859 -0.002026473 0.47687894
0003f0 e3 ba aa bd 7a a6 bc 3e 7d 68 8e 3e bf 87 6b 3c
       -0.08336427 0.36845762 0.27814093 0.014375626

sequential/gru/gru_cell/MatMul_1/ReadVariableOp/resource:0 f4 [64, 192]
000000 60 1d 2d 3d f6 00 45 be cb 57 e4 be a0 3e 88 3e
       0.042264342 -0.19238648 -0.4459823 0.2661028
000010 1d 30 04 3e 68 db 89 3e 0c a6 c2 be 36 56 b9 3d
       0.12908979 0.26925206 -0.3801731 0.090496466
000020 20 f4 b3 bc 35 0d 18 be 16 ca c8 3d b6 b8 e5 bd
       -0.021966994 -0.14848788 0.0980417 -0.112168714
000030 06 2c 7b 3e d6 d5 da 3d 79 c4 11 3f 11 c6 4e 3d
       0.24528512 0.10685317 0.5694042 0.05048186
000040 73 d7 81 be d6 20 ee be 85 16 84 3e fa 83 4d be
       -0.25359687 -0.46509427 0.2579843 -0.20069876
000050 34 7b 04 be 3a 4e a8 3e 1d ff 0e bc 91 f5 56 bd
       -0.12937623 0.32872182 -0.008727816 -0.052480284
000060 bd a4 41 3e ba b6 13 3e 54 e7 af be 9c 20 83 bf
       0.18910499 0.14425173 -0.34356177 -1.0244327
000070 68 93 20 3e aa e4 6e bf 64 fc 9b be 5c 46 bb bd
       0.15681231 -0.93317664 -0.30465996 -0.09144279
000080 48 9a da 3e b5 dd 99 bd 6b 81 5e be 34 73 51 3e
       0.42695832 -0.075129904 -0.21729057 0.20454103
000090 23 7e ad 3c d8 7b 92 3e c7 12 9e be 52 7f 10 3f
       0.02117831 0.2861011 -0.308737 0.56444275
0000a0 c5 9b 58 3e 73 e5 31 3e e7 ce 97 3e 89 a2 bb be
       0.21153171 0.17372684 0.2965004 -0.36647442
0000b0 c9 ce e0 3d a9 4b 95 bc 84 2b e2 be de bf 56 bd
       0.10976941 -0.018224554 -0.44173825 -0.052429073
0000c0 8b 59 62 bd bd 0a ce bd 16 3f 0e 3f c7 7f bc 3e
       -0.055261176 -0.10060642 0.5556501 0.36816236
0000d0 df bf 08 bd 8a d6 a9 3e db 1a 0d 3e 7f 37 89 3e
       -0.033386108 0.33171493 0.13779776 0.26800153
0000e0 fe f3 ad bd 0c 13 38 3e dd 06 5a bb 2f 45 1a 3f
       -0.084938034 0.17976016 -0.003326825 0.60261816
0000f0 4f ff 96 3d f7 35 09 3e a3 37 ff be ae 86 0a 3f
       0.07372915 0.13399492 -0.49847135 0.54111755
000100 78 a0 60 be 22 94 b0 bc c1 70 82 be 02 12 4f be
       -0.21936214 -0.02155501 -0.2547665 -0.20221713
000110 08 a1 96 3d 92 1f f7 bc 55 77 2f bf 7c 73 05 3e
       0.07354933 -0.030166421 -0.6854146 0.13032335
000120 25 6f 4a be 65 da 90 3a b7 02 60 3e 48 ae b6 3e
       -0.19768961 0.0011051415 0.21876036 0.3567984
000130 58 45 89 bf bb 15 1c be 99 83 d7 bd 35 fb a3 3e
       -1.0724287 -0.15242665 -0.10523147 0.32027593
000140 88 7e 21 bf 33 fe 53 3e 93 6d 31 be 13 36 79 bd
       -0.63083696 0.20702438 -0.17326955 -0.060842585
000150 f3 bd 26 be be 4f ca 3e f2 12 85 bd 41 20 15 bf
       -0.16283397 0.39513963 -0.06497754 -0.5825234
000160 19 ce 2b be 61 31 18 3e 2c 32 03 3e 76 4a 2a 3f
       -0.16777839 0.14862587 0.12812108 0.6651987
000170 80 b5 43 be 50 dd 75 be 3a 83 7b 3e 55 e3 8b 3d
       -0.19112206 -0.24010205 0.24561778 0.068304695
000180 9d 15 e2 be de 6c c7 be 16 be 90 bf 28 83 c4 be
       -0.44157115 -0.38950247 -1.130801 -0.38381314
000190 1f 05 cc be 00 bf a0 bd d1 71 a4 3d b1 39 90 be
       -0.39847657 -0.0784893 0.08029521 -0.28169015
0001a0 01 65 21 be ef 48 ba be c5 62 d0 be ae ed 01 bf
       -0.15761186 -0.3638377 -0.40700355 -0.50753295
0001b0 24 99 fa be 88 4c 2c 3e a9 69 34 3e 2b 7b ad be
       -0.48944962 0.1682607 0.17618431 -0.33883032
0001c0 04 34 24 be ae f1 e8 be d0 bf 41 3f ed e0 2c 3f
       -0.16035467 -0.45496887 0.7568331 0.6753071
0001d0 cc f3 43 3e 1f 16 8f 3e 75 51 9b be 1a e4 0c bf
       0.1913597 0.27946565 -0.30335584 -0.55035555
0001e0 d0 3a db be 61 48 bd be 6f be ce 3b 10 cf 2c be
       -0.42818308 -0.36969283 0.0063093225 -0.16875863
0001f0 00 45 12 3f 4c 7e f2 3d d6 46 e3 bc 86 09 e2 be
       0.57136536 0.118404955 -0.027743738 -0.4414789
000200 d2 6e a0 3d 4c 86 0e be 4a fb 5c 3c db da 4f bd
       0.07833637 -0.13918418 0.013487646 -0.050745826
000210 bd b7 76 3e 0d 99 18 3e 6b 04 20 3f da 17 90 3e
       0.24093528 0.14902134 0.6250674 0.28143197
000220 39 a6 45 be dd 91 5b 3c ab 42 a1 3c 3c f1 90 bd
       -0.1930169 0.013401476 0.01968511 -0.07077262
000230 ef 58 db 3e 26 c5 93 3d c7 85 e1 3d 2f 09 74 3e
       0.42841288 0.072153375 0.11011844 0.23831628
000240 c7 16 a4 bd 77 72 47 3e 4c 9e 49 be ee 0e 5b bf
       -0.08012157 0.19477259 -0.19689292 -0.85569656
000250 4d 5c 86 3e 2e d2 0a 3e 37 3c 80 bc 57 3e bf 3e
       0.26242295 0.1355674 -0.015653713 0.3735225
000260 e8 ac ae be f8 8d 6f be 6b 0e 9e be 6d 71 9b be
       -0.34116292 -0.23394 -0.30870375 -0.30359975
000270 b1 e4 bc be e6 15 75 be 9c 24 7f 3e 35 b8 bb bd
       -0.36893228 -0.23934135 0.24916309 -0.09165994
000280 71 35 d6 3e 89 e9 a8 3d 24 ef 5f 3e 07 9d 9d 3e
       0.41837648 0.08247668 0.21868569 0.30783865
000290 62 d3 c4 bd 66 db 52 3b da 11 a0 be ea 60 e0 3d
       -0.096106306 0.0032174229 -0.3126362 0.10955985
0002a0 dd 32 07 bd 02 7b a1 be 1e d0 99 3d 45 f6 a0 3e
       -0.03300749 -0.3153916 0.07510398 0.3143789
0002b0 1c 57 77 be 5f 84 ae bd 3b 7a c9 3d 99 a4 29 3e
       -0.24154323 -0.085213415 0.09837767 0.16566695
0002c0 3f c7 11 3e b6 f9 b5 3e 7d e2 e7 3e fb cc c2 3c
       0.14236163 0.35542077 0.45289984 0.023779383
0002d0 e3 39 07 bd 6c d3 4f bd bf 2f 7c 3c 08 3b 90 3e
       -0.03301419 -0.050738737 0.015392243 0.28170037
0002e0 f6 89 32 3e 31 2e 4e be 47 35 82 bd 28 05 da be
       0.1743544 -0.20134808 -0.06357818 -0.4258206
0002f0 1a 0f bc bc 52 44 8e 3e ad cd 6c be 79 d1 a1 3e
       -0.02295642 0.277865 -0.23125334 0.31605127
000300 fc 8c 13 3e b2 bb 29 3e 51 d8 1e 3f 0e 15 64 3e
       0.1440925 0.16575506 0.6204882 0.22273657
000310 5e 2d c8 be d7 46 26 3f 2c 3b a2 3e d3 d6 d0 3d
       -0.39097112 0.64951843 0.3168577 0.101972245
000320 08 9b f1 3e c2 bf be bd 03 91 5b 3e d0 54 8d be
       0.47188592 -0.09313919 0.21442036 -0.2760377
000330 bf 7e cf bd 42 16 d2 bf c7 42 8e 3d b7 7d c8 bd
       -0.10131597 -1.6413043 0.069463305 -0.09789603
000340 23 7d 30 bf 61 91 e6 be 90 cb a7 be df 5c d9 3d
       -0.68940943 -0.4503279 -0.32772493 0.10613417
000350 cd 91 f1 3e 09 72 3e 3f 73 71 03 bf 82 7d d6 bd
       0.4718155 0.74392754 -0.51344985 -0.104731575
000360 36 fd 2d 3f 4a 06 cc bd 8c e8 5f 3e 77 4a 67 3f
       0.67964494 -0.09962137 0.21866053 0.90348
000370 b0 1c 69 3e c4 eb 3c bf 44 fb e1 3d ee 77 5a 3f
       0.2276485 -0.7379725 0.11034253 0.8533925
000380 f8 fd 53 bf f1 00 af 3e 40 9f ee be d0 30 5d bf
       -0.828094 0.34180406 -0.46605873 -0.86402607
000390 74 f8 f7 be d6 7e 08 be a3 b0 87 3e 5e e8 78 3f
       -0.48431742 -0.13329634 0.2650195 0.97229564
0003a0 5e 4f e7 be 53 37 ec 3d 5d e4 84 3e 7f d2 67 be
       -0.4517774 0.1153399 0.25955477 -0.22638892
0003b0 8d 18 84 bd fb 61 c8 3e ce 86 82 bc fa ed 5d 3f
       -0.06449995 0.39137253 -0.01593342 0.8669125
0003c0 aa b1 85 be f9 b1 40 3f a0 0d bf 3e d8 48 bb be
       -0.2611211 0.75271565 0.37315083 -0.36579013
0003d0 dc 05 1c bd 53 a1 a0 be 30 bc b9 bd a4 52 9f bd
       -0.038091525 -0.3137308 -0.09069097 -0.07779434
0003e0 74 a0 db bd b8 24 d3 3e 44 e3 87 bd 3f 6d 59 bf
       -0.107239634 0.41238952 -0.06635144 -0.8493232
0003f0 47 6d 89 be 5c 7c eb be b3 12 5d 3e e3 26 ef 3e
       -0.26841184 -0.45993316 0.21589164 0.46709356

sequential/gru/gru_cell/MatMul/ReadVariableOp/resource:0 f4 [64, 192]
000000 d8 05 14 3f df 74 70 3d cf 15 f7 3c eb 52 82 be
       0.57821417 0.058705207 0.030161766 -0.25453886
000010 fe 6d b1 be 41 b9 5f 3f a7 dc d4 be ba 53 dc bd
       -0.3465423 0.8739205 -0.41574594 -0.10758157
000020 92 e5 6d 3e 3d dd 63 be dc 87 51 be 5a e4 87 bf
       0.23232105 -0.22252364 -0.20461982 -1.0616562
000030 31 38 f6 3d 13 da 8d be cb 3c d0 3e 65 1d 04 be
       0.120224364 -0.2770544 0.4067138 -0.12901838
000040 2c 90 78 3d 48 d3 c6 be 2d 22 c5 be 8c 20 7c 3e
       0.060684368 -0.3883307 -0.38502637 0.2462179
000050 f2 56 7c 3f 27 12 b6 bd f5 f1 b5 be d1 9c a3 3e
       0.9857017 -0.08890181 -0.3553616 0.3195558
000060 85 37 b4 be 9c 7e b2 bc a4 2f 05 bd ce 04 23 3f
       -0.35198608 -0.021788888 -0.032516137 0.63679206
000070 d6 18 1f 3e 2a 3b 4c bd 1c 7e dc be 18 ce 60 3f
       0.15536818 -0.04986111 -0.43064964 0.87814474
000080 8b 3f 30 bf 21 65 a9 3d 25 19 2c bf ff 38 98 3e
       -0.6884696 0.08271242 -0.6722587 0.29730985
000090 78 ed d9 be 08 61 23 3c 38 e1 1c bf 98 ff 41 bf
       -0.42563987 0.0099718645 -0.61281157 -0.7578063
0000a0 c0 c2 06 bd 6d db 07 bf c3 d9 95 bc 37 b4 55 bf
       -0.03290057 -0.5306919 -0.018292313 -0.8347811
0000b0 e6 8c 2e 3e 87 35 2b 3d 17 83 30 bf 4e 24 19 3f
       0.17045936 0.041799095 -0.6895003 0.5982102
0000c0 f1 57 ab bf 55 83 bf 3e d0 cc 13 be b5 67 be be
       -1.3386213 0.37404886 -0.14433599 -0.37188497
0000d0 9a 2d 3d bf 02 20 7e bf 3f dc 97 be 9c 55 c4 3e
       -0.7389771 -0.9926759 -0.29660222 0.38346565
0000e0 5c dd 0c 3e f8 93 c0 be c7 49 4e 3e 17 bc 57 bf
       0.13756317 -0.3761289 0.20145331 -0.8427138
0000f0 79 cd ff be 98 76 10 bf 3f 56 25 bf 3e ea a7 be
       -0.4996145 -0.5643096 -0.64584726 -0.327959
000100 97 fe 46 3d 4f e8 40 be 33 ce 08 bf 51 5b 27 be
       0.04858264 -0.18838619 -0.53439635 -0.16343428
000110 9b 96 92 3d 0f 13 5b 3c 4e 91 0b 3e 80 48 79 be
       0.07157632 0.013371243 0.13629648 -0.24344063
000120 e4 a0 04 bf a5 84 37 bf cc fd 71 3c 79 b0 86 3e
       -0.51808 -0.71686774 0.014769983 0.26306513
000130 27 22 dc be 24 a3 29 3d f1 37 2f be c3 31 4d bf
       -0.42994806 0.04141535 -0.17111184 -0.80154055
000140 0f 4d c4 bc ee 5b 0c 3d ce 5b 46 be 89 06 04 3f
       -0.023962526 0.03426736 -0.19370958 0.5157247
000150 7c 22 32 bd 36 92 0b be 95 eb d2 be 1d 9a 20 be
       -0.043489918 -0.13629994 -0.4119536 -0.1568379
000160 15 33 a7 be ce c4 87 3e 00 ef be bf 35 10 ac 3e
       -0.3265616 0.26517338 -1.4916687 0.33606115
000170 28 e9 b2 bd c3 7b 15 bb 47 80 94 3e fd 31 f0 3c
       -0.08735877 -0.0022809363 0.29004118 0.029320711
000180 46 53 bc bd ce 03 be be 7d 35 91 be d6 dd c2 be
       -0.09195571 -0.37112278 -0.2836112 -0.38059872
000190 e8 0a 92 3e 0e a0 da 3e 70 60 5b 3f 50 a9 ff be
       0.28523946 0.42700237 0.85694027 -0.49933863
0001a0 47 ae c4 be 4c 71 0a c0 b4 e3 5a be 36 1e 85 3e
       -0.38414213 -2.163165 -0.21375924 0.25999612
0001b0 b6 df 7f be 37 34 72 3e 86 db 67 be 38 2e 8d bf
       -0.24987683 0.23652731 -0.22642335 -1.102973
0001c0 1c 64 27 be 37 da ff be 8f 1b a5 3e 6c 66 a4 3d
       -0.16346782 -0.49971172 0.32247588 0.08027348
0001d0 a7 cc af 3c 9c 15 69 3f 2a dc 1e bf 15 1d 7d be
       0.02145989 0.910486 -0.62054694 -0.24718125
0001e0 d6 c4 8b be a8 d2 1b be 3e 8c de 3c e7 34 46 be
       -0.2729861 -0.15217078 0.027166482 -0.19356118
0001f0 a8 2e 09 3e 3d 66 47 be d6 61 eb 3d 8a 92 9c be
       0.13396704 -0.19472595 0.1149327 -0.3058055
000200 d2 dd 23 3e d1 c5 9d be 9f fc cc 3d 5f f6 c0 3c
       0.16002586 -0.30814984 0.10009121 0.023554979
000210 90 f4 b9 be fe 9b 10 3e a1 95 43 3e c5 61 24 bf
       -0.363194 0.14122006 0.19100048 -0.64211684
000220 ba 29 e9 bd 56 4d dd bd 00 17 62 be 93 1b 3e bf
       -0.11384912 -0.10805766 -0.22079086 -0.74260825
000230 e1 b2 19 3e 1e fc 0b 3e af 7e 3e bd c0 5d 44 3e
       0.15009643 0.13670394 -0.046507534 0.19176388
000240 ed aa 07 3e 19 7a a5 3e dd d6 84 3e e8 78 02 39
       0.13248797 0.32319716 0.25945178 0.00012442807
000250 d1 2a 8b 3e c5 5c 12 bc cf ca c3 3e 9d 53 4e 3e
       0.27181104 -0.008933251 0.38240668 0.20149083
000260 66 c0 a1 3e d3 a4 93 be 37 7a 57 be 6f e4 a6 3d
       0.315921 -0.28836688 -0.21042715 0.08149039
000270 6b dd 2a be f2 1b d4 bd 85 a5 a2 3d dc 7e 27 3e
       -0.16686027 -0.10356893 0.079417266 0.16356987
000280 ad 9f 96 be 3c ae 7f be 0f 2f 9d bd b6 10 b4 3e
       -0.29418698 -0.24968809 -0.07674991 0.35169
000290 d9 9a 46 be a5 51 98 bd 1c c7 0a bf ca 67 b1 3e
       -0.19395007 -0.074374475 -0.54210067 0.34649497
0002a0 17 62 a1 bd 73 c2 d8 3e 15 b0 d8 bd d0 63 53 be
       -0.07880037 0.42335853 -0.1058046 -0.20643544
0002b0 62 eb 90 bd d9 08 c3 bd 56 25 17 3f 3d b0 41 3e
       -0.07076146 -0.09523172 0.59041345 0.18914886
0002c0 9d 52 f2 be ad dd 31 3d 2b f9 50 be c5 08 ed 3d
       -0.47328654 0.043424297 -0.2040755 0.11573938
0002d0 80 f3 4f be d5 c0 fb be fa 69 23 be f3 df 2e 3e
       -0.20307732 -0.49170557 -0.15958396 0.17077617
0002e0 0b 48 32 bb c2 f1 eb be 08 d8 3a be 1f 06 f9 3e
       -0.0027203585 -0.46082884 -0.18246472 0.48637483
0002f0 38 fe a2 3d 67 ae 89 be ea 2a 10 be ba 65 a6 3e
       0.07958645 -0.2689087 -0.1407887 0.32499486
000300 96 19 46 3f 0d 8f 89 bb bc 79 2d 3f 7a 97 66 3f
       0.7738279 -0.004197961 0.67763877 0.90074885
000310 8a c2 48 bf 53 12 e5 3d 7d a3 16 bf 50 35 1b 3e
       -0.78421843 0.11185136 -0.58843213 0.15157056
000320 5a ba b5 3e 7c d7 fb 3e 5c 38 c9 bd e3 4e 38 bf
       0.35493737 0.4918784 -0.09825203 -0.7199537
000330 04 0a d1 3e d0 a5 ea be f9 b3 69 3e 74 36 08 bf
       0.40827954 -0.4582963 0.2282256 -0.5320809
000340 eb 9d 3d 3d 06 a5 92 be 68 90 b3 bd 6e b8 db bd
       0.04629318 -0.28641528 -0.08767778 -0.107285365
000350 e0 a3 83 3e 2d c1 66 3f b7 1f 2d be a7 6c 47 3e
       0.25710964 0.9013851 -0.1690663 0.19475041
000360 ac 9e a9 3d 91 10 ba bd 5f 2a f7 be c4 ab 67 3e
       0.082822174 -0.09085191 -0.48274514 0.22624117
000370 69 ae d7 bc e6 a0 b4 bd 69 cd 5e bf d7 35 02 3f
       -0.026328282 -0.088197514 -0.8703218 0.50863403
000380 b7 fb 5e 3e d5 a0 b7 3d 9d 55 27 bd d7 64 ba 3e
       0.21775709 0.08966223 -0.04085313 0.3640506
000390 36 93 c1 bb f8 14 26 bf 8a 4e e6 3e 8b 5d cb bd
       -0.0059074415 -0.64875746 0.44981796 -0.09929951
0003a0 a5 dd 32 bf 76 ad 78 bc c7 f7 c2 3e 81 c2 94 be
       -0.6986945 -0.015178075 0.38079664 -0.29054645
0003b0 89 c7 08 3d 01 12 12 3d 07 14 ee be de a5 c2 3e
       0.033393417 0.0356617 -0.46499655 0.38017172
0003c0 46 5c 1c bf 08 8e 35 3f 64 bc a5 3e 5f c1 82 bf
       -0.610783 0.7091985 0.32370293 -1.0215262
0003d0 7f d5 08 be a8 16 91 be cf 23 c8 be cd 1b 32 3f
       -0.13362692 -0.28337598 -0.3908982 0.6957367
0003e0 98 a8 1c 3f a3 f7 f5 3e 3f 3f 86 be 7f cb 1a bf
       0.61194754 0.48040494 -0.26220128 -0.6046676
0003f0 7e 6d b4 bf a1 dc 0d bf d7 dc 7f be 58 9a e9 3e
       -1.4095914 -0.5541478 -0.24986587 0.45625567

sequential/dense_1/MatMul/ReadVariableOp:0 f4 [32, 3]
000000 73 3d e8 bd e5 36 9e 3e 07 50 8d 3d 63 cd cc be
       -0.113398455 0.30901256 0.0690003 -0.40000448
000010 73 84 a0 3e a8 2e b8 bd 3e 80 a0 3d bc 87 bc 3e
       0.3135105 -0.08993274 0.0783696 0.36822307
000020 21 9f 9b 3e df c2 a2 bc dc 6a 8b be b1 df b0 be
       0.30394843 -0.019868312 -0.27229965 -0.34545663
000030 ed 03 17 be 22 e5 b5 3c 4b a6 0c bc 59 a8 4c 3e
       -0.14747591 0.022203986 -0.008584569 0.19986095
000040 ad 51 c6 be ba 4a a0 bd c7 4a 70 3c a5 91 2b be
       -0.3873419 -0.07826753 0.014666266 -0.16754778
000050 d4 3c c1 3d 6a 05 ad be 36 c6 d2 bd 87 2a b8 3e
       0.0943543 -0.33793193 -0.10291712 0.35969946
000060 b1 68 8a 3d c4 3c ca bd eb 1e 7e 3d 8e 16 98 3e
       0.067582496 -0.098748714 0.062041204 0.29704708
000070 77 32 39 3e b8 bf 88 3e 9d 72 22 3e 7a df 94 3e
       0.18085657 0.2670877 0.15864034 0.2907675
000080 eb 75 f2 bc 58 cf 2c be 77 cd a4 3e 1e d4 30 3e
       -0.029597243 -0.1687597 0.32188007 0.17268416
000090 bd 92 ff 3e 47 80 fc bd 6b d4 01 3f 54 a7 b3 be
       0.4991664 -0.123291545 0.5071475 -0.350886
0000a0 4d 03 b2 3e 00 49 b8 3d 09 8a 87 3d 2a 60 57 3d
       0.34768143 0.08998299 0.06618125 0.052581944
0000b0 7a 08 97 3d 5b 76 e1 bd db 41 df 3e 68 64 6f 3e
       0.07374664 -0.11008903 0.4360493 0.23378146
0000c0 a5 fd 4e 3c 57 50 93 3e 63 50 c4 bd 3f 55 4f be
       0.012633716 0.28772232 -0.09585645 -0.20247363
0000d0 ed 5e 83 3f 04 4e 36 bf 95 c8 04 3f 92 e3 17 bf
       1.0263344 -0.7121279 0.51868564 -0.5933162
0000e0 d0 f4 81 3e 6a ca 67 be ff b7 25 3c ca 49 98 3d
       0.2538209 -0.22635809 0.010114669 0.07435949
0000f0 dc 14 5d bc a0 6f 80 3c 94 70 09 be 8b 88 ff 3c
       -0.013493743 0.015678227 -0.13421851 0.031193038
000100 00 1c 79 3e 30 5e eb 3d ac 9d 90 3d 3b 38 6d 3e
       0.24327087 0.11492574 0.070613235 0.23165981
000110 0e 72 9e be a4 77 24 be fa 4a a8 3e 4c 72 d4 3c
       -0.30946392 -0.16061264 0.32869703 0.025933407
000120 0f 82 8b bd 07 b4 4d bd 5c 8b 01 3c 57 1d a0 3e
       -0.06811916 -0.050220516 0.007906761 0.31272385
000130 20 f0 c0 3e fa 41 9b 3d 47 a8 ab be 23 2e 83 3e
       0.376832 0.075809434 -0.33526823 0.25621137
000140 64 f6 d9 be 9a 13 5e be 5a 59 00 3f 67 97 7a be
       -0.42570794 -0.21687165 0.5013634 -0.24471818
000150 a6 5d b9 bd a2 20 b1 3e 4c 65 9b 3e f7 ac 9f 3e
       -0.09051065 0.3459521 0.3035072 0.3118665
000160 2b 92 83 3e 6c cc 9c 3e fe b7 71 3e 9e a5 e1 3e
       0.25697455 0.30624712 0.23605344 0.44071668
000170 6e 0f 9f 3e a1 12 4f bd 17 42 ff bc 3f f5 4f bd
       0.3106646 -0.050554875 -0.031159444 -0.050770994

sequential/dense_1/BiasAdd/ReadVariableOp:0 f4 [3]
000000 c1 c4 75 be 74 fb 91 3e 22 47 83 bd
       -0.24000837 0.28512156 -0.06410052

sequential/dense/MatMul/ReadVariableOp:0 f4 [64, 32]
000000 f9 13 93 3e 55 ec de 3e 9c c1 67 3d ea 57 fb be
       0.28726175 0.43539682 0.056581125 -0.4909051
000010 22 70 c7 3e fd c1 a6 be 02 71 53 bd 5c a8 fa 3d
       0.38952738 -0.32569876 -0.051621445 0.12239143
000020 6c bb 0f bd c3 f1 44 be 26 0e d2 3e d6 9b b6 3b
       -0.03509085 -0.1923285 0.4102642 0.0055727763
000030 a4 63 e1 bd 21 2f 93 3e 42 b7 c9 bd 0d 71 84 3e
       -0.11005333 0.28746894 -0.09849407 0.258675
000040 bf 7e b6 3e e7 43 27 3f d6 fe 98 be a8 57 4d 3d
       0.35643575 0.65337986 -0.29881924 0.050132424
000050 20 6f 65 be 3f d1 4a 3d 5b fa 24 bd 03 7e d2 3e
       -0.22405672 0.04951596 -0.04027782 0.41111764
000060 f1 46 88 be 35 f6 25 3e 74 f1 c0 3e 6a a5 df 3e
       -0.26616624 0.16207202 0.37684214 0.43680888
000070 ad cc c4 3d 7a 07 88 3c 0a fd a6 3e cd a7 04 3e
       0.09609351 0.016605128 0.32614928 0.12954636
000080 4f d5 80 bd 05 6d 1e be 72 48 1d bd 14 81 28 3f
       -0.062906854 -0.15471275 -0.038399167 0.6582196
000090 05 2c da 3d 6a db a1 3e 7a 3f 27 3d 51 40 d9 be
       0.10652927 0.31612712 0.04083202 -0.42431882
0000a0 e9 59 36 3d 9d 1d 28 3e 18 68 e6 bd 9f 99 ef be
       0.04451934 0.16417547 -0.11250323 -0.4679689
0000b0 4c fb da 3e 6b 51 8d bc 16 c0 65 3e 3d 0a d6 3d
       0.4276985 -0.017250737 0.22436556 0.104511715
0000c0 1e 8d 3a bd 2a de cc 3d 96 e9 84 3e fc 69 c4 be
       -0.045544736 0.10003312 0.25959462 -0.3836211
0000d0 1f 99 9c 3e 1e 22 09 be 17 68 85 3d 93 75 36 be
       0.30585572 -0.13391921 0.06513994 -0.17818289
0000e0 a8 a0 ad bb 61 26 04 be 36 92 f6 bd ff 4f 1f 3d
       -0.0052986927 -0.12905265 -0.12039606 0.03889465
0000f0 3b d3 64 3c a3 33 89 bd 14 81 9a bd 69 00 40 be
       0.013966377 -0.06699302 -0.07544151 -0.18750156
000100 81 86 30 3d d4 4a ca 3e 66 f9 3d 3d 6d ae cd 3d
       0.043097023 0.39510214 0.046380423 0.10043035
000110 26 55 07 3d 8b bc 5e 3d e1 b0 ce bd 33 09 86 3e
       0.03304019 0.054379027 -0.10092331 0.26178893
000120 6a 96 a4 3c 00 c9 28 be 8d 89 0f bd 09 a2 c5 3e
       0.020091254 -0.16482925 -0.035043288 0.38600186
000130 f1 cf 39 3e d2 19 9e 3d ce 9d 49 be d6 2c 38 3e
       0.1814573 0.077197686 -0.19689104 0.17985854
000140 f1 fa 8d be ca 62 cb 3f 20 ed 15 3f 71 9a 9a bd
       -0.27730516 1.5889523 0.5856495 -0.075489886
000150 8b ad 98 be 5c 4b 4b 3e 8b ca 7f 3f c3 bc 0e 3f
       -0.29819903 0.19852966 0.9991843 0.5575678
000160 a3 8c 1d be 5d 4f 0a 3f 3b 1e 14 3f 92 81 e1 3e
       -0.1538568 0.5402735 0.5785863 0.44044167
000170 c5 2e 8a 3e 7f ba 7a be e6 90 66 3e e6 c5 92 3e
       0.26988807 -0.24485205 0.22516212 0.2866661
000180 3d b9 89 3e b8 f3 fc 3e b4 dd 02 3e c2 b4 0c 3d
       0.26899138 0.49404693 0.12779886 0.03435207
000190 95 ef f4 3e 4a 54 6d 3e 12 a2 2e 3f 15 26 b7 3e
       0.47839037 0.23176685 0.6821605 0.35771242
0001a0 7b 65 ec 3e 01 be ff be 9b 38 1f 3f c3 c0 a6 3e
       0.46171173 -0.4994965 0.6219575 0.3256894
0001b0 5c 3b 0a 3e d6 c9 27 3f 54 7b a2 be 0a 0a fd bb
       0.13499206 0.6554235 -0.31734717 -0.007722144
0001c0 88 d3 3f be a9 10 d4 3f bc 28 16 be d9 ec 69 3e
       -0.18733037 1.6567584 -0.14663976 0.22844256
0001d0 a5 8a 05 bf 18 03 9d 3d 39 10 38 3d d5 5b f8 3d
       -0.5216468 0.07666606 0.044937346 0.121268906
0001e0 d7 0a 8f 3e b1 ad d4 be 66 f6 a6 3d 1c ef 8a 3f
       0.27937958 -0.41538766 0.081524655 1.085422
0001f0 ab 6c 79 3e 15 80 86 be be 79 da 3e 18 a0 6b 3e
       0.2435786 -0.26269594 0.42671007 0.2301029
000200 c9 32 1c be 98 88 d3 be 87 36 1c 3d c1 80 1c be
       -0.15253748 -0.4131515 0.03813794 -0.1528349
000210 17 6d 4e be ec ff 2d 3f c6 f3 fb 3e 11 33 03 bf
       -0.20158802 0.6796863 0.49209422 -0.51249796
000220 31 57 12 be 84 4c 97 3e ba 0a a5 bd 60 3b 7c be
       -0.14291073 0.29550564 -0.080586866 -0.24632025
000230 45 39 d2 3e d8 f4 26 be c3 55 64 bd ff 65 c4 3e
       0.41059318 -0.16304338 -0.05574585 0.38359067
000240 4a 4e ae bc 5c 0f 3c 3d a4 14 cb 3e e6 08 ad 3e
       -0.021277566 0.045913085 0.39664185 0.3379585
000250 38 da c6 3e b0 a8 ad be db 51 ce be 94 9b 18 3f
       0.38838363 -0.3391776 -0.40296826 0.59612393
000260 ba e8 82 3e f4 cb 12 be e4 05 da be 15 5e 19 3e
       0.2556818 -0.14335614 -0.4258262 0.14977296
000270 de 7e 2e be b6 84 25 be 27 2e dd bd d4 32 0a bf
       -0.17040583 -0.16163906 -0.107998185 -0.5398381
000280 77 3b 22 3e 83 ba a7 be 32 88 1e 3d f0 2e b0 3e
       0.15842997 -0.32759485 0.038704105 0.3441081
000290 df 61 1d bd 48 46 30 bd bb c4 86 3d c0 8f 72 be
       -0.038423415 -0.043035775 0.06580492 -0.23687649
0002a0 2c 24 6a 3e 62 02 27 3e f5 59 13 3e 4d 14 23 be
       0.22865361 0.16309503 0.14389785 -0.15925713
0002b0 4e 83 34 bd 49 51 74 3e ad 79 78 3d 8e 22 af be
       -0.044070534 0.23859133 0.060662914 -0.3420605
0002c0 7a 2f c7 bd b4 df 5b 3f 3f 7e 13 3f c5 9f a4 be
       -0.09725852 0.8588822 0.5761451 -0.32153144
0002d0 7f f2 ba 3e aa 70 24 3c 6b f6 93 bd 82 78 71 3c
       0.36513135 0.010036627 -0.07224735 0.014738204
0002e0 20 37 9c be 27 a7 e7 bd 8e ba f3 3c ea 1b dd 3e
       -0.30510807 -0.11311179 0.029752042 0.4318536
0002f0 c1 9a 7a bd 1c d3 f4 bd 84 4e db be b5 36 b0 be
       -0.06118274 -0.119543284 -0.4283334 -0.34416738
000300 70 17 7d 3e 9c 49 4a 3c d8 f1 cf 3b e7 26 2f 3e
       0.24715972 0.012346651 0.0063459687 0.17104684
000310 cd 18 be 3c ca 95 a5 3d 4d b5 cb be 02 fa 79 3e
       0.023205185 0.080852106 -0.3978676 0.24411777
000320 7d 0d c0 bd 34 bd 94 3b 39 4b ae bd 43 40 68 bc
       -0.09377573 0.0045391563 -0.08510441 -0.014175477
000330 37 f3 42 3e 77 e2 b7 bd ad 05 44 3b a1 70 74 bc
       0.19038092 -0.089787416 0.002991061 -0.014919431
000340 79 39 61 be f3 c5 1d be c3 c2 09 3e 6c 6d 0c bf
       -0.2199458 -0.15407543 0.13453202 -0.54854465
000350 e3 9e 97 be fe 79 ff bd d5 bb 56 be 20 1c 1d bf
       -0.29613408 -0.1247444 -0.2097009 -0.6137104
000360 ad 4b 5a 3e 47 66 d2 bd e1 ca a1 be c4 35 bd be
       0.2131793 -0.10273414 -0.31600097 -0.36955082
000370 6e c0 78 be a0 27 8f 3e df c1 98 3c 32 bd 1b 3e
       -0.24292156 0.2795992 0.018647132 0.15208891
000380 dc 09 b9 3d ea e2 08 3e 04 ce dc bc 53 2e eb 3e
       0.09035084 0.13367811 -0.026953705 0.4593378
000390 c5 c1 90 bd a5 8c 2f 3e f0 c8 c5 bd a5 44 bd 3c
       -0.070682086 0.17143495 -0.096574664 0.023104021
0003a0 b2 62 82 be d1 32 02 3d 2d a5 0b bc f7 cf af be
       -0.25465924 0.031786744 -0.008523268 -0.34338352
0003b0 f1 d5 c9 3e 1c 1f e9 bd 01 8d ba bc 24 a7 b4 bd
       0.39421037 -0.11382887 -0.022772314 -0.08820942
0003c0 32 4e 96 bd ae 6d ef 3d 78 cb 95 3c 08 2d 95 be
       -0.07339133 0.116908416 0.018285498 -0.2913592
0003d0 45 e8 cb 3e 8f e6 7e bd 00 d9 83 bc 04 11 9b 3e
       0.39825645 -0.062231597 -0.016094685 0.3028642
0003e0 72 cc 93 be 4c 5c 48 3e 61 db 25 bd 9f 63 28 be
       -0.28866917 0.19566458 -0.04049242 -0.16444252
0003f0 e8 cf 43 be 44 65 9f be a0 1c 4b 3e 15 bf a6 3d
       -0.19122279 -0.31131947 0.19835138 0.08141915

sequential/dense/BiasAdd/ReadVariableOp:0 f4 [32]
000000 12 dc f7 3d 77 6d f2 3d c4 da 33 3e 30 1b c8 be
       0.12102522 0.11837285 0.17563921 -0.39083242
000010 f0 d0 c8 3d 1a f3 d0 be 55 3e 62 bd 12 b2 3b 3d
       0.09805477 -0.40810472 -0.055235226 0.045824118
000020 b7 8f 50 bc e8 a3 23 be 94 1b 9d 3d 34 28 35 3e
       -0.012729577 -0.15980494 0.07671276 0.17691118
000030 05 23 b1 be 30 7d bf 3d 9f 5d e7 bd 7a a0 60 3e
       -0.3459703 0.093500495 -0.11297154 0.21936217
000040 e9 47 0a 3e 5f f1 c6 bd 86 bd d1 be 0a 6e 3d 3e
       0.13503994 -0.09714007 -0.40964907 0.18499008
000050 bb 48 50 be c3 07 4a 3e de 59 bf bc 74 93 63 ba
       -0.20340244 0.19729523 -0.023358282 -0.0008681335
000060 08 f0 d2 3c 2d 24 62 bd ec eb 8b bd 52 0b 4c 3d
       0.025749221 -0.05521028 -0.06832108 0.049815483
000070 c5 3f bb 3d ef f5 b7 bd 9f 95 90 3d 46 21 a5 3c
       0.091430224 -0.08982455 0.07059788 0.020157468

sequential/conv1d/Conv1D/ExpandDims_1:0 f4 [64, 1, 1, 2]
000000 1d ee 77 3f 38 b6 25 bd ea 1a a5 3c b4 7c 5c 3f
       0.9684771 -0.04045698 0.020154435 0.8612778
000010 0c fd 3a 3f fb 42 fd 3e 8e 10 ab 3c bb ec 1c 3f
       0.7304237 0.49465165 0.020881917 0.6129872
000020 81 9e e8 3e 88 dc ec be 7a 64 2c 3e cc 32 5d 3f
       0.4543343 -0.46262002 0.16835204 0.86405635
000030 46 dd 40 3f cf e2 a8 bc 7c d9 27 bf 8b 7b bd bf
       0.75337636 -0.020615963 -0.6556623 -1.4803327
000040 0b 22 61 be 8e ea 5e bf cf b9 46 3f 8b 4c 00 bf
       -0.21985643 -0.8707665 0.7762727 -0.50116795
000050 fd 7a 48 3f ee dc fb 3e 00 54 0b 3f 8a 8d d3 3e
       0.78312665 0.49191993 0.5442505 0.41318923
000060 3a 99 9d bf 87 e4 bf 3e e5 d0 2e 3f 43 9f ab be
       -1.2312386 0.3747904 0.682875 -0.33519945
000070 a2 5b 0c bf c9 8d bf bf f2 93 44 be 85 44 ad 3e
       -0.5482732 -1.4965144 -0.19197062 0.3384134
000080 40 09 57 3e 39 34 26 3e 4b ea 4b be ff 5b 87 bf
       0.20999622 0.16230859 -0.19913594 -1.057495
000090 3b 4c 94 3e 4e 94 55 3e b8 4f 0c 3e d7 b9 7f ba
       0.2896441 0.20857355 0.13702285 -0.00097551703
0000a0 b9 24 89 bf 58 66 66 3e df 6e ad 3e c8 c1 6f be
       -1.0714332 0.22499979 0.3387365 -0.23413765
0000b0 6b cf 0e 3e 36 7d 3a 3f 10 ff a1 3d 39 27 50 3d
       0.13946311 0.72847307 0.079099774 0.050818656
0000c0 a3 4e a0 bf e7 32 03 bf f0 a1 0a 3f d1 ef ce 3e
       -1.2523998 -0.51249546 0.54153347 0.4041734
0000d0 ff ef 25 3f bb 9f 03 3f d6 20 0d b8 e8 0b f9 3e
       0.6481933 0.51415604 -3.36476e-05 0.48641896
0000e0 1b fa 0a 3e 21 3f 32 3f e9 7f ac bc d3 c4 d0 3a
       0.1357197 0.6962758 -0.021057086 0.0015927799
0000f0 e3 a8 44 3f 41 2e 05 3f 8e b5 82 be 0b d7 83 bf
       0.768202 0.520237 -0.2552914 -1.0300001
000100 7b 4b 84 be be cd 84 bf 1f bc 29 be f2 6a ab 3e
       -0.25838837 -1.0375288 -0.16575669 0.3348003
000110 5d b5 89 be d2 56 9f bf 63 68 35 3f df 5e 0c 3f
       -0.26896182 -1.244837 0.70862406 0.5483226
000120 a7 3c f7 3e 9c ba b7 3e e1 83 23 be b8 26 5a bf
       0.48288462 0.3588456 -0.15968277 -0.8521533
000130 0b 9a 83 bf ce 5a 16 3f b8 c8 84 bf 4d 34 16 3d
       -1.0281385 0.58732307 -1.0373755 0.03667097
000140 5e 4c 18 3e 91 0d 47 3f 3e 08 99 3e 49 d8 5c 3e
       0.14872882 0.77755076 0.298891 0.21566881
000150 72 01 63 be 8e 0b 67 bf 7a bc 82 3e a8 c8 46 3e
       -0.2216852 -0.90252006 0.2553442 0.19412482
000160 5f 93 70 be 3b d6 8c bf 2c 3b 3f be 48 2e 7f bf
       -0.23493718 -1.1002878 -0.18674916 -0.99679995
000170 83 c5 66 bf 11 57 83 bf ce 1d 54 bf 62 4c ae bf
       -0.9014513 -1.0260946 -0.8285798 -1.361706
000180 3b 97 e2 bc 84 b9 a1 3c 4e c2 4e 3f f1 79 06 3f
       -0.027660003 0.019741781 0.80765235 0.5252982
000190 db 38 1c 3f 96 e2 cc be 35 41 e7 3e cb 3c 80 be
       0.61024255 -0.4001662 0.45166937 -0.2504638
0001a0 8d f5 84 be bc 4b f7 3d f6 41 41 3d 10 4a 1a 3d
       -0.2596859 0.12074992 0.047182046 0.037668288
0001b0 61 3c 13 3f 63 41 0e bf 4a 41 d4 3e d9 09 25 3f
       0.57514006 -0.5556852 0.41456062 0.6446815
0001c0 ca 6f 08 bf d1 a8 c0 bf 51 70 90 bf 7c c5 84 3e
       -0.53295577 -1.5051519 -1.1284276 0.2593192
0001d0 7f 75 16 3f 55 2e 18 3f 0f 73 10 3e 2f de c3 3d
       0.58773035 0.594457 0.14106391 0.095638625
0001e0 23 91 8f bf 81 a4 22 3f a5 e1 14 3e b0 19 43 3f
       -1.1216167 0.63532263 0.14539202 0.7621107
0001f0 e5 16 3d bf d3 5b e0 be 30 f5 87 bf 77 ee bd 3e
       -0.7386306 -0.43820056 -1.06217 0.37095997

const_fold_opt__89 f4 [1, 64, 1]
000000 92 7e c2 bd 29 24 23 bd aa 52 d6 bd 74 8d f8 bd
       -0.094967976 -0.039829407 -0.10464986 -0.12136355
000010 b2 1d e3 bc 3e 56 59 bd 5e b4 86 bd 19 48 11 be
       -0.02772412 -0.053060763 -0.06577371 -0.1418766
000020 2c 87 e2 bc 3e a7 16 bd c3 e1 d1 bd 88 49 87 bd
       -0.027652346 -0.03678059 -0.10248139 -0.06605822
000030 5b 3e 88 bd fd a1 71 bd 67 97 a0 bd 1f bc af bc
       -0.06652518 -0.058992375 -0.07841378 -0.021452008
000040 be df da bc ad 78 8a bd c4 51 f0 bc 22 ea 54 bb
       -0.026718017 -0.06761298 -0.029335864 -0.0032488187
000050 b3 6c d5 bd 8e 69 08 bb 37 0a d0 bc d6 5b a5 3a
       -0.10421123 -0.0020814869 -0.025395496 0.001261587
000060 fa 68 df bd 47 f6 82 bd ca ad a8 bd af 5f 97 bc
       -0.109086946 -0.0639463 -0.08236273 -0.018478243
000070 69 d2 ba bc a6 2b c2 ba 9a cf d2 bd dc 92 77 bd
       -0.02280541 -0.0014814034 -0.10293503 -0.06044279
000080 2d c7 7c bd 16 c8 1a bd 4a 42 94 bd fa 8e b7 bd
       -0.061713386 -0.037788473 -0.07239206 -0.089628175
000090 73 85 78 bd bd fc 81 bc 51 b9 89 bd a0 b9 a0 bd
       -0.060674142 -0.015867585 -0.067247994 -0.07847905
0000a0 e4 4d 35 bd f0 50 18 bd 4c 6b de bc 97 d2 df bc
       -0.044263735 -0.037186563 -0.027150773 -0.027322097
0000b0 69 09 e5 bc f7 54 9f bc d3 b0 c3 bd db 0d c8 bd
       -0.027958589 -0.019449694 -0.09555211 -0.09768268
0000c0 20 91 57 3b f2 52 e3 bd 0d b0 cb bc 8f 3e 33 bc
       0.0032892898 -0.11099805 -0.024864221 -0.010940208
0000d0 ab be c1 bc 2b 97 b0 3b 66 df fc bc 9b 64 f7 bd
       -0.023650488 0.0053891144 -0.030868243 -0.12079736
0000e0 e9 f7 9c bd e6 66 7a bd 41 75 88 bd 8a fa 5a bc
       -0.076644726 -0.061133288 -0.066629894 -0.013365397
0000f0 4a 6e 98 bd f4 69 cb bc 90 9f af bd ce ab 58 bd
       -0.07442911 -0.024830796 -0.08575356 -0.05289822
